…
I0315 11:23:24.274036 31925 solver.cpp:91] Creating training net from net file: ./train_val.prototxt
I0315 11:23:24.285091 31925 net.cpp:313] The NetState phase (0) differed from the phase (1) specified by a rule in layer data
I0315 11:23:24.285454 31925 net.cpp:49] Initializing net from parameters: 
name: "AlexNet"
state {
  phase: TRAIN
}
layer {
  name: "data"
  type: "Data"
  top: "data"
  top: "label"
  include {
    phase: TRAIN
  }
  transform_param {
    mirror: true
    crop_size: 227
    mean_file: "mean.binaryproto"
  }
  data_param {
    source: "skeleton_train_lmdb"
    batch_size: 512
    backend: LMDB
  }
}
layer {
  name: "conv1"
  type: "Convolution"
  bottom: "data"
  top: "conv1"
  param {
    lr_mult: 1
    decay_mult: 1
  }
  param {
    lr_mult: 2
    decay_mult: 0
  }
  convolution_param {
    num_output: 96
    kernel_size: 11
    stride: 4
    weight_filler {
      type: "gaussian"
      std: 0.01
    }
    bias_filler {
      type: "constant"
      value: 0
    }
  }
}
layer {
  name: "relu1"
  type: "ReLU"
  bottom: "conv1"
  top: "conv1"
}
layer {
  name: "norm1"
  type: "LRN"
  bottom: "conv1"
  top: "norm1"
  lrn_param {
    local_size: 5
    alpha: 0.0001
    beta: 0.75
  }
}
layer {
  name: "pool1"
  type: "Pooling"
  bottom: "norm1"
  top: "pool1"
  pooling_param {
    pool: MAX
    kernel_size: 3
    stride: 2
  }
}
layer {
  name: "conv2"
  type: "Convolution"
  bottom: "pool1"
  top: "conv2"
  param {
    lr_mult: 1
    decay_mult: 1
  }
  param {
    lr_mult: 2
    decay_mult: 0
  }
  convolution_param {
    num_output: 256
    pad: 2
    kernel_size: 5
    group: 2
    weight_filler {
      type: "gaussian"
      std: 0.01
    }
    bias_filler {
      type: "constant"
      value: 0.1
    }
  }
}
layer {
  name: "relu2"
  type: "ReLU"
  bottom: "conv2"
  top: "conv2"
}
layer {
  name: "norm2"
  type: "LRN"
  bottom: "conv2"
  top: "norm2"
  lrn_param {
    local_size: 5
    alpha: 0.0001
    beta: 0.75
  }
}
layer {
  name: "pool2"
  type: "Pooling"
  bottom: "norm2"
  top: "pool2"
  pooling_param {
    pool: MAX
    kernel_size: 3
    stride: 2
  }
}
layer {
  name: "conv3"
  type: "Convolution"
  bottom: "pool2"
  top: "conv3"
  param {
    lr_mult: 1
    decay_mult: 1
  }
  param {
    lr_mult: 2
    decay_mult: 0
  }
  convolution_param {
    num_output: 384
    pad: 1
    kernel_size: 3
    weight_filler {
      type: "gaussian"
      std: 0.01
    }
    bias_filler {
      type: "constant"
      value: 0
    }
  }
}
layer {
  name: "relu3"
  type: "ReLU"
  bottom: "conv3"
  top: "conv3"
}
layer {
  name: "conv4"
  type: "Convolution"
  bottom: "conv3"
  top: "conv4"
  param {
    lr_mult: 1
    decay_mult: 1
  }
  param {
    lr_mult: 2
    decay_mult: 0
  }
  convolution_param {
    num_output: 384
    pad: 1
    kernel_size: 3
    group: 2
    weight_filler {
      type: "gaussian"
      std: 0.01
    }
    bias_filler {
      type: "constant"
      value: 0.1
    }
  }
}
layer {
  name: "relu4"
  type: "ReLU"
  bottom: "conv4"
  top: "conv4"
}
layer {
  name: "conv5"
  type: "Convolution"
  bottom: "conv4"
  top: "conv5"
  param {
    lr_mult: 1
    decay_mult: 1
  }
  param {
    lr_mult: 2
    decay_mult: 0
  }
  convolution_param {
    num_output: 256
    pad: 1
    kernel_size: 3
    group: 2
    weight_filler {
      type: "gaussian"
      std: 0.01
    }
    bias_filler {
      type: "constant"
      value: 0.1
    }
  }
}
layer {
  name: "relu5"
  type: "ReLU"
  bottom: "conv5"
  top: "conv5"
}
layer {
  name: "pool5"
  type: "Pooling"
  bottom: "conv5"
  top: "pool5"
  pooling_param {
    pool: MAX
    kernel_size: 3
    stride: 2
  }
}
layer {
  name: "fc6"
  type: "InnerProduct"
  bottom: "pool5"
  top: "fc6"
  param {
    lr_mult: 1
    decay_mult: 1
  }
  param {
    lr_mult: 2
    decay_mult: 0
  }
  inner_product_param {
    num_output: 4096
    weight_filler {
      type: "gaussian"
      std: 0.005
    }
    bias_filler {
      type: "constant"
      value: 0.1
    }
  }
}
layer {
  name: "relu6"
  type: "ReLU"
  bottom: "fc6"
  top: "fc6"
}
layer {
  name: "drop6"
  type: "Dropout"
  bottom: "fc6"
  top: "fc6"
  dropout_param {
    dropout_ratio: 0.5
  }
}
layer {
  name: "fc7"
  type: "InnerProduct"
  bottom: "fc6"
  top: "fc7"
  param {
    lr_mult: 1
    decay_mult: 1
  }
  param {
    lr_mult: 2
    decay_mult: 0
  }
  inner_product_param {
    num_output: 4096
    weight_filler {
      type: "gaussian"
      std: 0.005
    }
    bias_filler {
      type: "constant"
      value: 0.1
    }
  }
}
layer {
  name: "relu7"
  type: "ReLU"
  bottom: "fc7"
  top: "fc7"
}
layer {
  name: "drop7"
  type: "Dropout"
  bottom: "fc7"
  top: "fc7"
  dropout_param {
    dropout_ratio: 0.5
  }
}
layer {
  name: "fc8_chh"
  type: "InnerProduct"
  bottom: "fc7"
  top: "fc8_chh"
  param {
    lr_mult: 1
    decay_mult: 1
  }
  param {
    lr_mult: 2
    decay_mult: 0
  }
  inner_product_param {
    num_output: 60
    weight_filler {
      type: "gaussian"
      std: 0.01
    }
    bias_filler {
      type: "constant"
      value: 0
    }
  }
}
layer {
  name: "accuracy"
  type: "Accuracy"
  bottom: "fc8_chh"
  bottom: "label"
  top: "accuracy"
}
layer {
  name: "loss"
  type: "SoftmaxWithLoss"
  bottom: "fc8_chh"
  bottom: "label"
  top: "loss"
}
I0315 11:23:24.297986 31925 layer_factory.hpp:77] Creating layer data
I0315 11:23:24.298840 31925 net.cpp:91] Creating Layer data
I0315 11:23:24.298862 31925 net.cpp:399] data -> data
I0315 11:23:24.298929 31925 net.cpp:399] data -> label
I0315 11:23:24.298976 31925 data_transformer.cpp:25] Loading mean file from: mean.binaryproto
I0315 11:23:24.299921 31931 db_lmdb.cpp:38] Opened lmdb skeleton_train_lmdb
I0315 11:23:24.402248 31925 data_layer.cpp:41] output data size: 512,3,227,227
I0315 11:23:25.174628 31925 net.cpp:141] Setting up data
I0315 11:23:25.174711 31925 net.cpp:148] Top shape: 512 3 227 227 (79148544)
I0315 11:23:25.174727 31925 net.cpp:148] Top shape: 512 (512)
I0315 11:23:25.174736 31925 net.cpp:156] Memory required for data: 316596224
I0315 11:23:25.174756 31925 layer_factory.hpp:77] Creating layer label_data_1_split
I0315 11:23:25.174799 31925 net.cpp:91] Creating Layer label_data_1_split
I0315 11:23:25.174816 31925 net.cpp:425] label_data_1_split <- label
I0315 11:23:25.174839 31925 net.cpp:399] label_data_1_split -> label_data_1_split_0
I0315 11:23:25.174862 31925 net.cpp:399] label_data_1_split -> label_data_1_split_1
I0315 11:23:25.175143 31925 net.cpp:141] Setting up label_data_1_split
I0315 11:23:25.175168 31925 net.cpp:148] Top shape: 512 (512)
I0315 11:23:25.175178 31925 net.cpp:148] Top shape: 512 (512)
I0315 11:23:25.175184 31925 net.cpp:156] Memory required for data: 316600320
I0315 11:23:25.175194 31925 layer_factory.hpp:77] Creating layer conv1
I0315 11:23:25.175351 31925 net.cpp:91] Creating Layer conv1
I0315 11:23:25.175369 31925 net.cpp:425] conv1 <- data
I0315 11:23:25.175382 31925 net.cpp:399] conv1 -> conv1
I0315 11:23:26.410508 31925 net.cpp:141] Setting up conv1
I0315 11:23:26.410553 31925 net.cpp:148] Top shape: 512 96 55 55 (148684800)
I0315 11:23:26.410562 31925 net.cpp:156] Memory required for data: 911339520
I0315 11:23:26.410590 31925 layer_factory.hpp:77] Creating layer relu1
I0315 11:23:26.410629 31925 net.cpp:91] Creating Layer relu1
I0315 11:23:26.410640 31925 net.cpp:425] relu1 <- conv1
I0315 11:23:26.410652 31925 net.cpp:386] relu1 -> conv1 (in-place)
I0315 11:23:26.411068 31925 net.cpp:141] Setting up relu1
I0315 11:23:26.411090 31925 net.cpp:148] Top shape: 512 96 55 55 (148684800)
I0315 11:23:26.411099 31925 net.cpp:156] Memory required for data: 1506078720
I0315 11:23:26.411108 31925 layer_factory.hpp:77] Creating layer norm1
I0315 11:23:26.430160 31925 net.cpp:91] Creating Layer norm1
I0315 11:23:26.430229 31925 net.cpp:425] norm1 <- conv1
I0315 11:23:26.430246 31925 net.cpp:399] norm1 -> norm1
I0315 11:23:26.431845 31925 net.cpp:141] Setting up norm1
I0315 11:23:26.431872 31925 net.cpp:148] Top shape: 512 96 55 55 (148684800)
I0315 11:23:26.431880 31925 net.cpp:156] Memory required for data: 2100817920
I0315 11:23:26.431893 31925 layer_factory.hpp:77] Creating layer pool1
I0315 11:23:26.431908 31925 net.cpp:91] Creating Layer pool1
I0315 11:23:26.431916 31925 net.cpp:425] pool1 <- norm1
I0315 11:23:26.431927 31925 net.cpp:399] pool1 -> pool1
I0315 11:23:26.432003 31925 net.cpp:141] Setting up pool1
I0315 11:23:26.432025 31925 net.cpp:148] Top shape: 512 96 27 27 (35831808)
I0315 11:23:26.432034 31925 net.cpp:156] Memory required for data: 2244145152
I0315 11:23:26.432041 31925 layer_factory.hpp:77] Creating layer conv2
I0315 11:23:26.432081 31925 net.cpp:91] Creating Layer conv2
I0315 11:23:26.432092 31925 net.cpp:425] conv2 <- pool1
I0315 11:23:26.432106 31925 net.cpp:399] conv2 -> conv2
I0315 11:23:26.449012 31925 net.cpp:141] Setting up conv2
I0315 11:23:26.449055 31925 net.cpp:148] Top shape: 512 256 27 27 (95551488)
I0315 11:23:26.449064 31925 net.cpp:156] Memory required for data: 2626351104
I0315 11:23:26.449085 31925 layer_factory.hpp:77] Creating layer relu2
I0315 11:23:26.449102 31925 net.cpp:91] Creating Layer relu2
I0315 11:23:26.449112 31925 net.cpp:425] relu2 <- conv2
I0315 11:23:26.449125 31925 net.cpp:386] relu2 -> conv2 (in-place)
I0315 11:23:26.449368 31925 net.cpp:141] Setting up relu2
I0315 11:23:26.449388 31925 net.cpp:148] Top shape: 512 256 27 27 (95551488)
I0315 11:23:26.449396 31925 net.cpp:156] Memory required for data: 3008557056
I0315 11:23:26.449404 31925 layer_factory.hpp:77] Creating layer norm2
I0315 11:23:26.449421 31925 net.cpp:91] Creating Layer norm2
I0315 11:23:26.449429 31925 net.cpp:425] norm2 <- conv2
I0315 11:23:26.449440 31925 net.cpp:399] norm2 -> norm2
I0315 11:23:26.449883 31925 net.cpp:141] Setting up norm2
I0315 11:23:26.449906 31925 net.cpp:148] Top shape: 512 256 27 27 (95551488)
I0315 11:23:26.449914 31925 net.cpp:156] Memory required for data: 3390763008
I0315 11:23:26.449923 31925 layer_factory.hpp:77] Creating layer pool2
I0315 11:23:26.449942 31925 net.cpp:91] Creating Layer pool2
I0315 11:23:26.449950 31925 net.cpp:425] pool2 <- norm2
I0315 11:23:26.449962 31925 net.cpp:399] pool2 -> pool2
I0315 11:23:26.450024 31925 net.cpp:141] Setting up pool2
I0315 11:23:26.450042 31925 net.cpp:148] Top shape: 512 256 13 13 (22151168)
I0315 11:23:26.450050 31925 net.cpp:156] Memory required for data: 3479367680
I0315 11:23:26.450058 31925 layer_factory.hpp:77] Creating layer conv3
I0315 11:23:26.450099 31925 net.cpp:91] Creating Layer conv3
I0315 11:23:26.450111 31925 net.cpp:425] conv3 <- pool2
I0315 11:23:26.450125 31925 net.cpp:399] conv3 -> conv3
I0315 11:23:26.492432 31925 net.cpp:141] Setting up conv3
I0315 11:23:26.492476 31925 net.cpp:148] Top shape: 512 384 13 13 (33226752)
I0315 11:23:26.492486 31925 net.cpp:156] Memory required for data: 3612274688
I0315 11:23:26.492507 31925 layer_factory.hpp:77] Creating layer relu3
I0315 11:23:26.492525 31925 net.cpp:91] Creating Layer relu3
I0315 11:23:26.492535 31925 net.cpp:425] relu3 <- conv3
I0315 11:23:26.492547 31925 net.cpp:386] relu3 -> conv3 (in-place)
I0315 11:23:26.492792 31925 net.cpp:141] Setting up relu3
I0315 11:23:26.492815 31925 net.cpp:148] Top shape: 512 384 13 13 (33226752)
I0315 11:23:26.492823 31925 net.cpp:156] Memory required for data: 3745181696
I0315 11:23:26.492831 31925 layer_factory.hpp:77] Creating layer conv4
I0315 11:23:26.492880 31925 net.cpp:91] Creating Layer conv4
I0315 11:23:26.492892 31925 net.cpp:425] conv4 <- conv3
I0315 11:23:26.492904 31925 net.cpp:399] conv4 -> conv4
I0315 11:23:26.531033 31925 net.cpp:141] Setting up conv4
I0315 11:23:26.531080 31925 net.cpp:148] Top shape: 512 384 13 13 (33226752)
I0315 11:23:26.531090 31925 net.cpp:156] Memory required for data: 3878088704
I0315 11:23:26.531128 31925 layer_factory.hpp:77] Creating layer relu4
I0315 11:23:26.531150 31925 net.cpp:91] Creating Layer relu4
I0315 11:23:26.531198 31925 net.cpp:425] relu4 <- conv4
I0315 11:23:26.531213 31925 net.cpp:386] relu4 -> conv4 (in-place)
I0315 11:23:26.531472 31925 net.cpp:141] Setting up relu4
I0315 11:23:26.531497 31925 net.cpp:148] Top shape: 512 384 13 13 (33226752)
I0315 11:23:26.531504 31925 net.cpp:156] Memory required for data: 4010995712
I0315 11:23:26.531512 31925 layer_factory.hpp:77] Creating layer conv5
I0315 11:23:26.531533 31925 net.cpp:91] Creating Layer conv5
I0315 11:23:26.531543 31925 net.cpp:425] conv5 <- conv4
I0315 11:23:26.531555 31925 net.cpp:399] conv5 -> conv5
I0315 11:23:26.553848 31925 net.cpp:141] Setting up conv5
I0315 11:23:26.553872 31925 net.cpp:148] Top shape: 512 256 13 13 (22151168)
I0315 11:23:26.553880 31925 net.cpp:156] Memory required for data: 4099600384
I0315 11:23:26.553902 31925 layer_factory.hpp:77] Creating layer relu5
I0315 11:23:26.553915 31925 net.cpp:91] Creating Layer relu5
I0315 11:23:26.553923 31925 net.cpp:425] relu5 <- conv5
I0315 11:23:26.553932 31925 net.cpp:386] relu5 -> conv5 (in-place)
I0315 11:23:26.554191 31925 net.cpp:141] Setting up relu5
I0315 11:23:26.554213 31925 net.cpp:148] Top shape: 512 256 13 13 (22151168)
I0315 11:23:26.554220 31925 net.cpp:156] Memory required for data: 4188205056
I0315 11:23:26.554227 31925 layer_factory.hpp:77] Creating layer pool5
I0315 11:23:26.554250 31925 net.cpp:91] Creating Layer pool5
I0315 11:23:26.554258 31925 net.cpp:425] pool5 <- conv5
I0315 11:23:26.554270 31925 net.cpp:399] pool5 -> pool5
I0315 11:23:26.554343 31925 net.cpp:141] Setting up pool5
I0315 11:23:26.554360 31925 net.cpp:148] Top shape: 512 256 6 6 (4718592)
I0315 11:23:26.554368 31925 net.cpp:156] Memory required for data: 4207079424
I0315 11:23:26.554386 31925 layer_factory.hpp:77] Creating layer fc6
I0315 11:23:26.554409 31925 net.cpp:91] Creating Layer fc6
I0315 11:23:26.554419 31925 net.cpp:425] fc6 <- pool5
I0315 11:23:26.554432 31925 net.cpp:399] fc6 -> fc6
I0315 11:23:28.241703 31925 net.cpp:141] Setting up fc6
I0315 11:23:28.241761 31925 net.cpp:148] Top shape: 512 4096 (2097152)
I0315 11:23:28.241771 31925 net.cpp:156] Memory required for data: 4215468032
I0315 11:23:28.241794 31925 layer_factory.hpp:77] Creating layer relu6
I0315 11:23:28.241816 31925 net.cpp:91] Creating Layer relu6
I0315 11:23:28.241827 31925 net.cpp:425] relu6 <- fc6
I0315 11:23:28.241842 31925 net.cpp:386] relu6 -> fc6 (in-place)
I0315 11:23:28.242671 31925 net.cpp:141] Setting up relu6
I0315 11:23:28.242697 31925 net.cpp:148] Top shape: 512 4096 (2097152)
I0315 11:23:28.242704 31925 net.cpp:156] Memory required for data: 4223856640
I0315 11:23:28.242712 31925 layer_factory.hpp:77] Creating layer drop6
I0315 11:23:28.242733 31925 net.cpp:91] Creating Layer drop6
I0315 11:23:28.242740 31925 net.cpp:425] drop6 <- fc6
I0315 11:23:28.242751 31925 net.cpp:386] drop6 -> fc6 (in-place)
I0315 11:23:28.242808 31925 net.cpp:141] Setting up drop6
I0315 11:23:28.242826 31925 net.cpp:148] Top shape: 512 4096 (2097152)
I0315 11:23:28.242833 31925 net.cpp:156] Memory required for data: 4232245248
I0315 11:23:28.242841 31925 layer_factory.hpp:77] Creating layer fc7
I0315 11:23:28.242858 31925 net.cpp:91] Creating Layer fc7
I0315 11:23:28.242867 31925 net.cpp:425] fc7 <- fc6
I0315 11:23:28.242878 31925 net.cpp:399] fc7 -> fc7
I0315 11:23:28.996026 31925 net.cpp:141] Setting up fc7
I0315 11:23:28.996091 31925 net.cpp:148] Top shape: 512 4096 (2097152)
I0315 11:23:28.996101 31925 net.cpp:156] Memory required for data: 4240633856
I0315 11:23:28.996130 31925 layer_factory.hpp:77] Creating layer relu7
I0315 11:23:28.996151 31925 net.cpp:91] Creating Layer relu7
I0315 11:23:28.996163 31925 net.cpp:425] relu7 <- fc7
I0315 11:23:28.996183 31925 net.cpp:386] relu7 -> fc7 (in-place)
I0315 11:23:28.996631 31925 net.cpp:141] Setting up relu7
I0315 11:23:28.996654 31925 net.cpp:148] Top shape: 512 4096 (2097152)
I0315 11:23:28.996662 31925 net.cpp:156] Memory required for data: 4249022464
I0315 11:23:28.996670 31925 layer_factory.hpp:77] Creating layer drop7
I0315 11:23:28.996690 31925 net.cpp:91] Creating Layer drop7
I0315 11:23:28.996722 31925 net.cpp:425] drop7 <- fc7
I0315 11:23:28.996734 31925 net.cpp:386] drop7 -> fc7 (in-place)
I0315 11:23:28.996784 31925 net.cpp:141] Setting up drop7
I0315 11:23:28.996801 31925 net.cpp:148] Top shape: 512 4096 (2097152)
I0315 11:23:28.996809 31925 net.cpp:156] Memory required for data: 4257411072
I0315 11:23:28.996816 31925 layer_factory.hpp:77] Creating layer fc8_chh
I0315 11:23:28.996834 31925 net.cpp:91] Creating Layer fc8_chh
I0315 11:23:28.996841 31925 net.cpp:425] fc8_chh <- fc7
I0315 11:23:28.996852 31925 net.cpp:399] fc8_chh -> fc8_chh
I0315 11:23:29.008194 31925 net.cpp:141] Setting up fc8_chh
I0315 11:23:29.008219 31925 net.cpp:148] Top shape: 512 60 (30720)
I0315 11:23:29.008226 31925 net.cpp:156] Memory required for data: 4257533952
I0315 11:23:29.008239 31925 layer_factory.hpp:77] Creating layer fc8_chh_fc8_chh_0_split
I0315 11:23:29.008255 31925 net.cpp:91] Creating Layer fc8_chh_fc8_chh_0_split
I0315 11:23:29.008263 31925 net.cpp:425] fc8_chh_fc8_chh_0_split <- fc8_chh
I0315 11:23:29.008275 31925 net.cpp:399] fc8_chh_fc8_chh_0_split -> fc8_chh_fc8_chh_0_split_0
I0315 11:23:29.008288 31925 net.cpp:399] fc8_chh_fc8_chh_0_split -> fc8_chh_fc8_chh_0_split_1
I0315 11:23:29.008358 31925 net.cpp:141] Setting up fc8_chh_fc8_chh_0_split
I0315 11:23:29.008375 31925 net.cpp:148] Top shape: 512 60 (30720)
I0315 11:23:29.008384 31925 net.cpp:148] Top shape: 512 60 (30720)
I0315 11:23:29.008391 31925 net.cpp:156] Memory required for data: 4257779712
I0315 11:23:29.008399 31925 layer_factory.hpp:77] Creating layer accuracy
I0315 11:23:29.008414 31925 net.cpp:91] Creating Layer accuracy
I0315 11:23:29.008421 31925 net.cpp:425] accuracy <- fc8_chh_fc8_chh_0_split_0
I0315 11:23:29.008431 31925 net.cpp:425] accuracy <- label_data_1_split_0
I0315 11:23:29.008441 31925 net.cpp:399] accuracy -> accuracy
…
I0315 11:23:29.010740 31925 solver.cpp:181] Creating test net (#0) specified by net file: ./train_val.prototxt
I0315 11:23:29.010809 31925 net.cpp:313] The NetState phase (1) differed from the phase (0) specified by a rule in layer data
I0315 11:23:29.011112 31925 net.cpp:49] Initializing net from parameters: 
name: "AlexNet"
state {
  phase: TEST
}
layer {
  name: "data"
  type: "Data"
  top: "data"
  top: "label"
  include {
    phase: TEST
  }
  transform_param {
    mirror: false
    crop_size: 227
    mean_file: "mean.binaryproto"
  }
  data_param {
    source: "skeleton_test_lmdb"
    batch_size: 500
    backend: LMDB
  }
}
layer {
  name: "conv1"
  type: "Convolution"
  bottom: "data"
  top: "conv1"
  param {
    lr_mult: 1
    decay_mult: 1
  }
  param {
    lr_mult: 2
    decay_mult: 0
  }
  convolution_param {
    num_output: 96
    kernel_size: 11
    stride: 4
    weight_filler {
      type: "gaussian"
      std: 0.01
    }
    bias_filler {
      type: "constant"
      value: 0
    }
  }
}
layer {
  name: "relu1"
  type: "ReLU"
  bottom: "conv1"
  top: "conv1"
}
layer {
  name: "norm1"
  type: "LRN"
  bottom: "conv1"
  top: "norm1"
  lrn_param {
    local_size: 5
    alpha: 0.0001
    beta: 0.75
  }
}
layer {
  name: "pool1"
  type: "Pooling"
  bottom: "norm1"
  top: "pool1"
  pooling_param {
    pool: MAX
    kernel_size: 3
    stride: 2
  }
}
layer {
  name: "conv2"
  type: "Convolution"
  bottom: "pool1"
  top: "conv2"
  param {
    lr_mult: 1
    decay_mult: 1
  }
  param {
    lr_mult: 2
    decay_mult: 0
  }
  convolution_param {
    num_output: 256
    pad: 2
    kernel_size: 5
    group: 2
    weight_filler {
      type: "gaussian"
      std: 0.01
    }
    bias_filler {
      type: "constant"
      value: 0.1
    }
  }
}
layer {
  name: "relu2"
  type: "ReLU"
  bottom: "conv2"
  top: "conv2"
}
layer {
  name: "norm2"
  type: "LRN"
  bottom: "conv2"
  top: "norm2"
  lrn_param {
    local_size: 5
    alpha: 0.0001
    beta: 0.75
  }
}
layer {
  name: "pool2"
  type: "Pooling"
  bottom: "norm2"
  top: "pool2"
  pooling_param {
    pool: MAX
    kernel_size: 3
    stride: 2
  }
}
layer {
  name: "conv3"
  type: "Convolution"
  bottom: "pool2"
  top: "conv3"
  param {
    lr_mult: 1
    decay_mult: 1
  }
  param {
    lr_mult: 2
    decay_mult: 0
  }
  convolution_param {
    num_output: 384
    pad: 1
    kernel_size: 3
    weight_filler {
      type: "gaussian"
      std: 0.01
    }
    bias_filler {
      type: "constant"
      value: 0
    }
  }
}
layer {
  name: "relu3"
  type: "ReLU"
  bottom: "conv3"
  top: "conv3"
}
layer {
  name: "conv4"
  type: "Convolution"
  bottom: "conv3"
  top: "conv4"
  param {
    lr_mult: 1
    decay_mult: 1
  }
  param {
    lr_mult: 2
    decay_mult: 0
  }
  convolution_param {
    num_output: 384
    pad: 1
    kernel_size: 3
    group: 2
    weight_filler {
      type: "gaussian"
      std: 0.01
    }
    bias_filler {
      type: "constant"
      value: 0.1
    }
  }
}
layer {
  name: "relu4"
  type: "ReLU"
  bottom: "conv4"
  top: "conv4"
}
layer {
  name: "conv5"
  type: "Convolution"
  bottom: "conv4"
  top: "conv5"
  param {
    lr_mult: 1
    decay_mult: 1
  }
  param {
    lr_mult: 2
    decay_mult: 0
  }
  convolution_param {
    num_output: 256
    pad: 1
    kernel_size: 3
    group: 2
    weight_filler {
      type: "gaussian"
      std: 0.01
    }
    bias_filler {
      type: "constant"
      value: 0.1
    }
  }
}
layer {
  name: "relu5"
  type: "ReLU"
  bottom: "conv5"
  top: "conv5"
}
layer {
  name: "pool5"
  type: "Pooling"
  bottom: "conv5"
  top: "pool5"
  pooling_param {
    pool: MAX
    kernel_size: 3
    stride: 2
  }
}
layer {
  name: "fc6"
  type: "InnerProduct"
  bottom: "pool5"
  top: "fc6"
  param {
    lr_mult: 1
    decay_mult: 1
  }
  param {
    lr_mult: 2
    decay_mult: 0
  }
  inner_product_param {
    num_output: 4096
    weight_filler {
      type: "gaussian"
      std: 0.005
    }
    bias_filler {
      type: "constant"
      value: 0.1
    }
  }
}
layer {
  name: "relu6"
  type: "ReLU"
  bottom: "fc6"
  top: "fc6"
}
layer {
  name: "drop6"
  type: "Dropout"
  bottom: "fc6"
  top: "fc6"
  dropout_param {
    dropout_ratio: 0.5
  }
}
layer {
  name: "fc7"
  type: "InnerProduct"
  bottom: "fc6"
  top: "fc7"
  param {
    lr_mult: 1
    decay_mult: 1
  }
  param {
    lr_mult: 2
    decay_mult: 0
  }
  inner_product_param {
    num_output: 4096
    weight_filler {
      type: "gaussian"
      std: 0.005
    }
    bias_filler {
      type: "constant"
      value: 0.1
    }
  }
}
layer {
  name: "relu7"
  type: "ReLU"
  bottom: "fc7"
  top: "fc7"
}
layer {
  name: "drop7"
  type: "Dropout"
  bottom: "fc7"
  top: "fc7"
  dropout_param {
    dropout_ratio: 0.5
  }
}
layer {
  name: "fc8_chh"
  type: "InnerProduct"
  bottom: "fc7"
  top: "fc8_chh"
  param {
    lr_mult: 1
    decay_mult: 1
  }
  param {
    lr_mult: 2
    decay_mult: 0
  }
  inner_product_param {
    num_output: 60
    weight_filler {
      type: "gaussian"
      std: 0.01
    }
    bias_filler {
      type: "constant"
      value: 0
    }
  }
}
layer {
  name: "accuracy"
  type: "Accuracy"
  bottom: "fc8_chh"
  bottom: "label"
  top: "accuracy"
}
layer {
  name: "loss"
  type: "SoftmaxWithLoss"
  bottom: "fc8_chh"
  bottom: "label"
  top: "loss"
}
I0315 11:23:29.011292 31925 layer_factory.hpp:77] Creating layer data
I0315 11:23:29.011821 31925 net.cpp:91] Creating Layer data
I0315 11:23:29.011840 31925 net.cpp:399] data -> data
I0315 11:23:29.011859 31925 net.cpp:399] data -> label
I0315 11:23:29.011875 31925 data_transformer.cpp:25] Loading mean file from: mean.binaryproto
I0315 11:23:29.012923 31935 db_lmdb.cpp:38] Opened lmdb skeleton_test_lmdb
I0315 11:23:29.026010 31925 data_layer.cpp:41] output data size: 500,3,227,227
I0315 11:23:29.742599 31925 net.cpp:141] Setting up data
I0315 11:23:29.742650 31925 net.cpp:148] Top shape: 500 3 227 227 (77293500)
I0315 11:23:29.742660 31925 net.cpp:148] Top shape: 500 (500)
I0315 11:23:29.742667 31925 net.cpp:156] Memory required for data: 309176000
I0315 11:23:29.742682 31925 layer_factory.hpp:77] Creating layer label_data_1_split
I0315 11:23:29.742712 31925 net.cpp:91] Creating Layer label_data_1_split
I0315 11:23:29.742728 31925 net.cpp:425] label_data_1_split <- label
I0315 11:23:29.742753 31925 net.cpp:399] label_data_1_split -> label_data_1_split_0
I0315 11:23:29.742782 31925 net.cpp:399] label_data_1_split -> label_data_1_split_1
I0315 11:23:29.742916 31925 net.cpp:141] Setting up label_data_1_split
I0315 11:23:29.742935 31925 net.cpp:148] Top shape: 500 (500)
I0315 11:23:29.742944 31925 net.cpp:148] Top shape: 500 (500)
I0315 11:23:29.742951 31925 net.cpp:156] Memory required for data: 309180000
I0315 11:23:29.742961 31925 layer_factory.hpp:77] Creating layer conv1
I0315 11:23:29.742987 31925 net.cpp:91] Creating Layer conv1
I0315 11:23:29.742996 31925 net.cpp:425] conv1 <- data
I0315 11:23:29.743010 31925 net.cpp:399] conv1 -> conv1
I0315 11:23:29.805732 31925 net.cpp:141] Setting up conv1
I0315 11:23:29.805773 31925 net.cpp:148] Top shape: 500 96 55 55 (145200000)
I0315 11:23:29.805783 31925 net.cpp:156] Memory required for data: 889980000
I0315 11:23:29.805805 31925 layer_factory.hpp:77] Creating layer relu1
I0315 11:23:29.805858 31925 net.cpp:91] Creating Layer relu1
I0315 11:23:29.805874 31925 net.cpp:425] relu1 <- conv1
I0315 11:23:29.805902 31925 net.cpp:386] relu1 -> conv1 (in-place)
I0315 11:23:29.806166 31925 net.cpp:141] Setting up relu1
I0315 11:23:29.806186 31925 net.cpp:148] Top shape: 500 96 55 55 (145200000)
I0315 11:23:29.806195 31925 net.cpp:156] Memory required for data: 1470780000
I0315 11:23:29.806202 31925 layer_factory.hpp:77] Creating layer norm1
I0315 11:23:29.806221 31925 net.cpp:91] Creating Layer norm1
I0315 11:23:29.806229 31925 net.cpp:425] norm1 <- conv1
I0315 11:23:29.806241 31925 net.cpp:399] norm1 -> norm1
I0315 11:23:29.806716 31925 net.cpp:141] Setting up norm1
I0315 11:23:29.806740 31925 net.cpp:148] Top shape: 500 96 55 55 (145200000)
I0315 11:23:29.806749 31925 net.cpp:156] Memory required for data: 2051580000
I0315 11:23:29.806757 31925 layer_factory.hpp:77] Creating layer pool1
I0315 11:23:29.806773 31925 net.cpp:91] Creating Layer pool1
I0315 11:23:29.806782 31925 net.cpp:425] pool1 <- norm1
I0315 11:23:29.806797 31925 net.cpp:399] pool1 -> pool1
I0315 11:23:29.806872 31925 net.cpp:141] Setting up pool1
I0315 11:23:29.806897 31925 net.cpp:148] Top shape: 500 96 27 27 (34992000)
I0315 11:23:29.806905 31925 net.cpp:156] Memory required for data: 2191548000
I0315 11:23:29.806915 31925 layer_factory.hpp:77] Creating layer conv2
I0315 11:23:29.806936 31925 net.cpp:91] Creating Layer conv2
I0315 11:23:29.806944 31925 net.cpp:425] conv2 <- pool1
I0315 11:23:29.806959 31925 net.cpp:399] conv2 -> conv2
I0315 11:23:29.823707 31925 net.cpp:141] Setting up conv2
I0315 11:23:29.823753 31925 net.cpp:148] Top shape: 500 256 27 27 (93312000)
I0315 11:23:29.823762 31925 net.cpp:156] Memory required for data: 2564796000
I0315 11:23:29.823786 31925 layer_factory.hpp:77] Creating layer relu2
I0315 11:23:29.823803 31925 net.cpp:91] Creating Layer relu2
I0315 11:23:29.823812 31925 net.cpp:425] relu2 <- conv2
I0315 11:23:29.823827 31925 net.cpp:386] relu2 -> conv2 (in-place)
I0315 11:23:29.824101 31925 net.cpp:141] Setting up relu2
I0315 11:23:29.824122 31925 net.cpp:148] Top shape: 500 256 27 27 (93312000)
I0315 11:23:29.824129 31925 net.cpp:156] Memory required for data: 2938044000
I0315 11:23:29.824137 31925 layer_factory.hpp:77] Creating layer norm2
I0315 11:23:29.824156 31925 net.cpp:91] Creating Layer norm2
I0315 11:23:29.824167 31925 net.cpp:425] norm2 <- conv2
I0315 11:23:29.824177 31925 net.cpp:399] norm2 -> norm2
I0315 11:23:29.824657 31925 net.cpp:141] Setting up norm2
I0315 11:23:29.824681 31925 net.cpp:148] Top shape: 500 256 27 27 (93312000)
I0315 11:23:29.824689 31925 net.cpp:156] Memory required for data: 3311292000
I0315 11:23:29.824697 31925 layer_factory.hpp:77] Creating layer pool2
I0315 11:23:29.824712 31925 net.cpp:91] Creating Layer pool2
I0315 11:23:29.824719 31925 net.cpp:425] pool2 <- norm2
I0315 11:23:29.824731 31925 net.cpp:399] pool2 -> pool2
I0315 11:23:29.824803 31925 net.cpp:141] Setting up pool2
I0315 11:23:29.824821 31925 net.cpp:148] Top shape: 500 256 13 13 (21632000)
I0315 11:23:29.824832 31925 net.cpp:156] Memory required for data: 3397820000
I0315 11:23:29.824852 31925 layer_factory.hpp:77] Creating layer conv3
I0315 11:23:29.824873 31925 net.cpp:91] Creating Layer conv3
I0315 11:23:29.824882 31925 net.cpp:425] conv3 <- pool2
I0315 11:23:29.824897 31925 net.cpp:399] conv3 -> conv3
I0315 11:23:29.865639 31925 net.cpp:141] Setting up conv3
I0315 11:23:29.865682 31925 net.cpp:148] Top shape: 500 384 13 13 (32448000)
I0315 11:23:29.865690 31925 net.cpp:156] Memory required for data: 3527612000
I0315 11:23:29.865712 31925 layer_factory.hpp:77] Creating layer relu3
I0315 11:23:29.865731 31925 net.cpp:91] Creating Layer relu3
I0315 11:23:29.865739 31925 net.cpp:425] relu3 <- conv3
I0315 11:23:29.865751 31925 net.cpp:386] relu3 -> conv3 (in-place)
I0315 11:23:29.866176 31925 net.cpp:141] Setting up relu3
I0315 11:23:29.866199 31925 net.cpp:148] Top shape: 500 384 13 13 (32448000)
I0315 11:23:29.866206 31925 net.cpp:156] Memory required for data: 3657404000
I0315 11:23:29.866214 31925 layer_factory.hpp:77] Creating layer conv4
I0315 11:23:29.866255 31925 net.cpp:91] Creating Layer conv4
I0315 11:23:29.866266 31925 net.cpp:425] conv4 <- conv3
I0315 11:23:29.866279 31925 net.cpp:399] conv4 -> conv4
I0315 11:23:29.901932 31925 net.cpp:141] Setting up conv4
I0315 11:23:29.901979 31925 net.cpp:148] Top shape: 500 384 13 13 (32448000)
I0315 11:23:29.901989 31925 net.cpp:156] Memory required for data: 3787196000
I0315 11:23:29.902010 31925 layer_factory.hpp:77] Creating layer relu4
I0315 11:23:29.902034 31925 net.cpp:91] Creating Layer relu4
I0315 11:23:29.902046 31925 net.cpp:425] relu4 <- conv4
I0315 11:23:29.902060 31925 net.cpp:386] relu4 -> conv4 (in-place)
I0315 11:23:29.902364 31925 net.cpp:141] Setting up relu4
I0315 11:23:29.902387 31925 net.cpp:148] Top shape: 500 384 13 13 (32448000)
I0315 11:23:29.902395 31925 net.cpp:156] Memory required for data: 3916988000
I0315 11:23:29.902415 31925 layer_factory.hpp:77] Creating layer conv5
I0315 11:23:29.902438 31925 net.cpp:91] Creating Layer conv5
I0315 11:23:29.902447 31925 net.cpp:425] conv5 <- conv4
I0315 11:23:29.902462 31925 net.cpp:399] conv5 -> conv5
I0315 11:23:29.925313 31925 net.cpp:141] Setting up conv5
I0315 11:23:29.925356 31925 net.cpp:148] Top shape: 500 256 13 13 (21632000)
I0315 11:23:29.925365 31925 net.cpp:156] Memory required for data: 4003516000
I0315 11:23:29.925389 31925 layer_factory.hpp:77] Creating layer relu5
I0315 11:23:29.925407 31925 net.cpp:91] Creating Layer relu5
I0315 11:23:29.925420 31925 net.cpp:425] relu5 <- conv5
I0315 11:23:29.925433 31925 net.cpp:386] relu5 -> conv5 (in-place)
I0315 11:23:29.925701 31925 net.cpp:141] Setting up relu5
I0315 11:23:29.925724 31925 net.cpp:148] Top shape: 500 256 13 13 (21632000)
I0315 11:23:29.925731 31925 net.cpp:156] Memory required for data: 4090044000
I0315 11:23:29.925739 31925 layer_factory.hpp:77] Creating layer pool5
I0315 11:23:29.925761 31925 net.cpp:91] Creating Layer pool5
I0315 11:23:29.925770 31925 net.cpp:425] pool5 <- conv5
I0315 11:23:29.925781 31925 net.cpp:399] pool5 -> pool5
I0315 11:23:29.925861 31925 net.cpp:141] Setting up pool5
I0315 11:23:29.925879 31925 net.cpp:148] Top shape: 500 256 6 6 (4608000)
I0315 11:23:29.925887 31925 net.cpp:156] Memory required for data: 4108476000
I0315 11:23:29.925894 31925 layer_factory.hpp:77] Creating layer fc6
I0315 11:23:29.925915 31925 net.cpp:91] Creating Layer fc6
I0315 11:23:29.925923 31925 net.cpp:425] fc6 <- pool5
I0315 11:23:29.925936 31925 net.cpp:399] fc6 -> fc6
I0315 11:23:30.123515 31936 blocking_queue.cpp:50] Waiting for data
I0315 11:23:31.599910 31925 net.cpp:141] Setting up fc6
I0315 11:23:31.599954 31925 net.cpp:148] Top shape: 500 4096 (2048000)
I0315 11:23:31.599962 31925 net.cpp:156] Memory required for data: 4116668000
I0315 11:23:31.599982 31925 layer_factory.hpp:77] Creating layer relu6
I0315 11:23:31.599999 31925 net.cpp:91] Creating Layer relu6
I0315 11:23:31.600008 31925 net.cpp:425] relu6 <- fc6
I0315 11:23:31.600023 31925 net.cpp:386] relu6 -> fc6 (in-place)
I0315 11:23:31.600625 31925 net.cpp:141] Setting up relu6
I0315 11:23:31.600649 31925 net.cpp:148] Top shape: 500 4096 (2048000)
I0315 11:23:31.600657 31925 net.cpp:156] Memory required for data: 4124860000
I0315 11:23:31.600666 31925 layer_factory.hpp:77] Creating layer drop6
I0315 11:23:31.600678 31925 net.cpp:91] Creating Layer drop6
I0315 11:23:31.600685 31925 net.cpp:425] drop6 <- fc6
I0315 11:23:31.600697 31925 net.cpp:386] drop6 -> fc6 (in-place)
I0315 11:23:31.600749 31925 net.cpp:141] Setting up drop6
I0315 11:23:31.600765 31925 net.cpp:148] Top shape: 500 4096 (2048000)
I0315 11:23:31.600775 31925 net.cpp:156] Memory required for data: 4133052000
I0315 11:23:31.600782 31925 layer_factory.hpp:77] Creating layer fc7
I0315 11:23:31.600795 31925 net.cpp:91] Creating Layer fc7
I0315 11:23:31.600803 31925 net.cpp:425] fc7 <- fc6
I0315 11:23:31.600816 31925 net.cpp:399] fc7 -> fc7
I0315 11:23:32.344604 31925 net.cpp:141] Setting up fc7
I0315 11:23:32.344650 31925 net.cpp:148] Top shape: 500 4096 (2048000)
I0315 11:23:32.344658 31925 net.cpp:156] Memory required for data: 4141244000
I0315 11:23:32.344709 31925 layer_factory.hpp:77] Creating layer relu7
I0315 11:23:32.344732 31925 net.cpp:91] Creating Layer relu7
I0315 11:23:32.344744 31925 net.cpp:425] relu7 <- fc7
I0315 11:23:32.344758 31925 net.cpp:386] relu7 -> fc7 (in-place)
I0315 11:23:32.345199 31925 net.cpp:141] Setting up relu7
I0315 11:23:32.345221 31925 net.cpp:148] Top shape: 500 4096 (2048000)
I0315 11:23:32.345228 31925 net.cpp:156] Memory required for data: 4149436000
I0315 11:23:32.345235 31925 layer_factory.hpp:77] Creating layer drop7
I0315 11:23:32.345252 31925 net.cpp:91] Creating Layer drop7
I0315 11:23:32.345259 31925 net.cpp:425] drop7 <- fc7
I0315 11:23:32.345270 31925 net.cpp:386] drop7 -> fc7 (in-place)
I0315 11:23:32.345322 31925 net.cpp:141] Setting up drop7
I0315 11:23:32.345336 31925 net.cpp:148] Top shape: 500 4096 (2048000)
I0315 11:23:32.345343 31925 net.cpp:156] Memory required for data: 4157628000
I0315 11:23:32.345350 31925 layer_factory.hpp:77] Creating layer fc8_chh
I0315 11:23:32.345367 31925 net.cpp:91] Creating Layer fc8_chh
I0315 11:23:32.345379 31925 net.cpp:425] fc8_chh <- fc7
I0315 11:23:32.345391 31925 net.cpp:399] fc8_chh -> fc8_chh
I0315 11:23:32.356789 31925 net.cpp:141] Setting up fc8_chh
I0315 11:23:32.356818 31925 net.cpp:148] Top shape: 500 60 (30000)
I0315 11:23:32.356827 31925 net.cpp:156] Memory required for data: 4157748000
I0315 11:23:32.356839 31925 layer_factory.hpp:77] Creating layer fc8_chh_fc8_chh_0_split
I0315 11:23:32.356853 31925 net.cpp:91] Creating Layer fc8_chh_fc8_chh_0_split
I0315 11:23:32.356861 31925 net.cpp:425] fc8_chh_fc8_chh_0_split <- fc8_chh
I0315 11:23:32.356873 31925 net.cpp:399] fc8_chh_fc8_chh_0_split -> fc8_chh_fc8_chh_0_split_0
I0315 11:23:32.356887 31925 net.cpp:399] fc8_chh_fc8_chh_0_split -> fc8_chh_fc8_chh_0_split_1
I0315 11:23:32.356961 31925 net.cpp:141] Setting up fc8_chh_fc8_chh_0_split
I0315 11:23:32.356978 31925 net.cpp:148] Top shape: 500 60 (30000)
I0315 11:23:32.356987 31925 net.cpp:148] Top shape: 500 60 (30000)
I0315 11:23:32.356994 31925 net.cpp:156] Memory required for data: 4157988000
I0315 11:23:32.357002 31925 layer_factory.hpp:77] Creating layer accuracy
I0315 11:23:32.357014 31925 net.cpp:91] Creating Layer accuracy
I0315 11:23:32.357028 31925 net.cpp:425] accuracy <- fc8_chh_fc8_chh_0_split_0
I0315 11:23:32.357038 31925 net.cpp:425] accuracy <- label_data_1_split_0
I0315 11:23:32.357048 31925 net.cpp:399] accuracy -> accuracy
…
