…
I0315 11:23:40.808889 31939 solver.cpp:91] Creating training net from net file: ./train_val.prototxt
I0315 11:23:40.810099 31939 net.cpp:313] The NetState phase (0) differed from the phase (1) specified by a rule in layer data
I0315 11:23:40.810449 31939 net.cpp:49] Initializing net from parameters: 
name: "AlexNet"
state {
  phase: TRAIN
}
layer {
  name: "data"
  type: "Data"
  top: "data"
  top: "label"
  include {
    phase: TRAIN
  }
  transform_param {
    mirror: true
    crop_size: 227
    mean_file: "mean.binaryproto"
  }
  data_param {
    source: "skeleton_train_lmdb"
    batch_size: 512
    backend: LMDB
  }
}
layer {
  name: "conv1"
  type: "Convolution"
  bottom: "data"
  top: "conv1"
  param {
    lr_mult: 1
    decay_mult: 1
  }
  param {
    lr_mult: 2
    decay_mult: 0
  }
  convolution_param {
    num_output: 96
    kernel_size: 11
    stride: 4
    weight_filler {
      type: "gaussian"
      std: 0.01
    }
    bias_filler {
      type: "constant"
      value: 0
    }
  }
}
layer {
  name: "relu1"
  type: "ReLU"
  bottom: "conv1"
  top: "conv1"
}
layer {
  name: "norm1"
  type: "LRN"
  bottom: "conv1"
  top: "norm1"
  lrn_param {
    local_size: 5
    alpha: 0.0001
    beta: 0.75
  }
}
layer {
  name: "pool1"
  type: "Pooling"
  bottom: "norm1"
  top: "pool1"
  pooling_param {
    pool: MAX
    kernel_size: 3
    stride: 2
  }
}
layer {
  name: "conv2"
  type: "Convolution"
  bottom: "pool1"
  top: "conv2"
  param {
    lr_mult: 1
    decay_mult: 1
  }
  param {
    lr_mult: 2
    decay_mult: 0
  }
  convolution_param {
    num_output: 256
    pad: 2
    kernel_size: 5
    group: 2
    weight_filler {
      type: "gaussian"
      std: 0.01
    }
    bias_filler {
      type: "constant"
      value: 0.1
    }
  }
}
layer {
  name: "relu2"
  type: "ReLU"
  bottom: "conv2"
  top: "conv2"
}
layer {
  name: "norm2"
  type: "LRN"
  bottom: "conv2"
  top: "norm2"
  lrn_param {
    local_size: 5
    alpha: 0.0001
    beta: 0.75
  }
}
layer {
  name: "pool2"
  type: "Pooling"
  bottom: "norm2"
  top: "pool2"
  pooling_param {
    pool: MAX
    kernel_size: 3
    stride: 2
  }
}
layer {
  name: "conv3"
  type: "Convolution"
  bottom: "pool2"
  top: "conv3"
  param {
    lr_mult: 1
    decay_mult: 1
  }
  param {
    lr_mult: 2
    decay_mult: 0
  }
  convolution_param {
    num_output: 384
    pad: 1
    kernel_size: 3
    weight_filler {
      type: "gaussian"
      std: 0.01
    }
    bias_filler {
      type: "constant"
      value: 0
    }
  }
}
layer {
  name: "relu3"
  type: "ReLU"
  bottom: "conv3"
  top: "conv3"
}
layer {
  name: "conv4"
  type: "Convolution"
  bottom: "conv3"
  top: "conv4"
  param {
    lr_mult: 1
    decay_mult: 1
  }
  param {
    lr_mult: 2
    decay_mult: 0
  }
  convolution_param {
    num_output: 384
    pad: 1
    kernel_size: 3
    group: 2
    weight_filler {
      type: "gaussian"
      std: 0.01
    }
    bias_filler {
      type: "constant"
      value: 0.1
    }
  }
}
layer {
  name: "relu4"
  type: "ReLU"
  bottom: "conv4"
  top: "conv4"
}
layer {
  name: "conv5"
  type: "Convolution"
  bottom: "conv4"
  top: "conv5"
  param {
    lr_mult: 1
    decay_mult: 1
  }
  param {
    lr_mult: 2
    decay_mult: 0
  }
  convolution_param {
    num_output: 256
    pad: 1
    kernel_size: 3
    group: 2
    weight_filler {
      type: "gaussian"
      std: 0.01
    }
    bias_filler {
      type: "constant"
      value: 0.1
    }
  }
}
layer {
  name: "relu5"
  type: "ReLU"
  bottom: "conv5"
  top: "conv5"
}
layer {
  name: "pool5"
  type: "Pooling"
  bottom: "conv5"
  top: "pool5"
  pooling_param {
    pool: MAX
    kernel_size: 3
    stride: 2
  }
}
layer {
  name: "fc6"
  type: "InnerProduct"
  bottom: "pool5"
  top: "fc6"
  param {
    lr_mult: 1
    decay_mult: 1
  }
  param {
    lr_mult: 2
    decay_mult: 0
  }
  inner_product_param {
    num_output: 4096
    weight_filler {
      type: "gaussian"
      std: 0.005
    }
    bias_filler {
      type: "constant"
      value: 0.1
    }
  }
}
layer {
  name: "relu6"
  type: "ReLU"
  bottom: "fc6"
  top: "fc6"
}
layer {
  name: "drop6"
  type: "Dropout"
  bottom: "fc6"
  top: "fc6"
  dropout_param {
    dropout_ratio: 0.5
  }
}
layer {
  name: "fc7"
  type: "InnerProduct"
  bottom: "fc6"
  top: "fc7"
  param {
    lr_mult: 1
    decay_mult: 1
  }
  param {
    lr_mult: 2
    decay_mult: 0
  }
  inner_product_param {
    num_output: 4096
    weight_filler {
      type: "gaussian"
      std: 0.005
    }
    bias_filler {
      type: "constant"
      value: 0.1
    }
  }
}
layer {
  name: "relu7"
  type: "ReLU"
  bottom: "fc7"
  top: "fc7"
}
layer {
  name: "drop7"
  type: "Dropout"
  bottom: "fc7"
  top: "fc7"
  dropout_param {
    dropout_ratio: 0.5
  }
}
layer {
  name: "fc8_chh"
  type: "InnerProduct"
  bottom: "fc7"
  top: "fc8_chh"
  param {
    lr_mult: 1
    decay_mult: 1
  }
  param {
    lr_mult: 2
    decay_mult: 0
  }
  inner_product_param {
    num_output: 60
    weight_filler {
      type: "gaussian"
      std: 0.01
    }
    bias_filler {
      type: "constant"
      value: 0
    }
  }
}
layer {
  name: "accuracy"
  type: "Accuracy"
  bottom: "fc8_chh"
  bottom: "label"
  top: "accuracy"
}
layer {
  name: "loss"
  type: "SoftmaxWithLoss"
  bottom: "fc8_chh"
  bottom: "label"
  top: "loss"
}
I0315 11:23:40.810827 31939 layer_factory.hpp:77] Creating layer data
I0315 11:23:40.811960 31939 net.cpp:91] Creating Layer data
I0315 11:23:40.811988 31939 net.cpp:399] data -> data
I0315 11:23:40.812057 31939 net.cpp:399] data -> label
I0315 11:23:40.812219 31939 data_transformer.cpp:25] Loading mean file from: mean.binaryproto
I0315 11:23:40.825615 31945 db_lmdb.cpp:38] Opened lmdb skeleton_train_lmdb
I0315 11:23:40.872524 31939 data_layer.cpp:41] output data size: 512,3,227,227
I0315 11:23:41.607460 31939 net.cpp:141] Setting up data
I0315 11:23:41.607710 31939 net.cpp:148] Top shape: 512 3 227 227 (79148544)
I0315 11:23:41.607734 31939 net.cpp:148] Top shape: 512 (512)
I0315 11:23:41.607748 31939 net.cpp:156] Memory required for data: 316596224
I0315 11:23:41.607797 31939 layer_factory.hpp:77] Creating layer label_data_1_split
I0315 11:23:41.607869 31939 net.cpp:91] Creating Layer label_data_1_split
I0315 11:23:41.607888 31939 net.cpp:425] label_data_1_split <- label
I0315 11:23:41.607913 31939 net.cpp:399] label_data_1_split -> label_data_1_split_0
I0315 11:23:41.607931 31939 net.cpp:399] label_data_1_split -> label_data_1_split_1
I0315 11:23:41.608166 31939 net.cpp:141] Setting up label_data_1_split
I0315 11:23:41.608187 31939 net.cpp:148] Top shape: 512 (512)
I0315 11:23:41.608196 31939 net.cpp:148] Top shape: 512 (512)
I0315 11:23:41.608203 31939 net.cpp:156] Memory required for data: 316600320
I0315 11:23:41.608224 31939 layer_factory.hpp:77] Creating layer conv1
I0315 11:23:41.608253 31939 net.cpp:91] Creating Layer conv1
I0315 11:23:41.608263 31939 net.cpp:425] conv1 <- data
I0315 11:23:41.608275 31939 net.cpp:399] conv1 -> conv1
I0315 11:23:41.696000 31948 blocking_queue.cpp:50] Waiting for data
I0315 11:23:41.896767 31939 net.cpp:141] Setting up conv1
I0315 11:23:41.896807 31939 net.cpp:148] Top shape: 512 96 55 55 (148684800)
I0315 11:23:41.896816 31939 net.cpp:156] Memory required for data: 911339520
I0315 11:23:41.896847 31939 layer_factory.hpp:77] Creating layer relu1
I0315 11:23:41.896884 31939 net.cpp:91] Creating Layer relu1
I0315 11:23:41.896898 31939 net.cpp:425] relu1 <- conv1
I0315 11:23:41.896911 31939 net.cpp:386] relu1 -> conv1 (in-place)
I0315 11:23:41.897342 31939 net.cpp:141] Setting up relu1
I0315 11:23:41.897364 31939 net.cpp:148] Top shape: 512 96 55 55 (148684800)
I0315 11:23:41.897373 31939 net.cpp:156] Memory required for data: 1506078720
I0315 11:23:41.897382 31939 layer_factory.hpp:77] Creating layer norm1
I0315 11:23:41.897439 31939 net.cpp:91] Creating Layer norm1
I0315 11:23:41.897450 31939 net.cpp:425] norm1 <- conv1
I0315 11:23:41.897461 31939 net.cpp:399] norm1 -> norm1
I0315 11:23:41.897759 31939 net.cpp:141] Setting up norm1
I0315 11:23:41.897781 31939 net.cpp:148] Top shape: 512 96 55 55 (148684800)
I0315 11:23:41.897789 31939 net.cpp:156] Memory required for data: 2100817920
I0315 11:23:41.897797 31939 layer_factory.hpp:77] Creating layer pool1
I0315 11:23:41.897810 31939 net.cpp:91] Creating Layer pool1
I0315 11:23:41.897819 31939 net.cpp:425] pool1 <- norm1
I0315 11:23:41.897828 31939 net.cpp:399] pool1 -> pool1
I0315 11:23:41.897900 31939 net.cpp:141] Setting up pool1
I0315 11:23:41.897918 31939 net.cpp:148] Top shape: 512 96 27 27 (35831808)
I0315 11:23:41.897927 31939 net.cpp:156] Memory required for data: 2244145152
I0315 11:23:41.897944 31939 layer_factory.hpp:77] Creating layer conv2
I0315 11:23:41.897969 31939 net.cpp:91] Creating Layer conv2
I0315 11:23:41.897979 31939 net.cpp:425] conv2 <- pool1
I0315 11:23:41.897990 31939 net.cpp:399] conv2 -> conv2
I0315 11:23:41.914078 31939 net.cpp:141] Setting up conv2
I0315 11:23:41.914108 31939 net.cpp:148] Top shape: 512 256 27 27 (95551488)
I0315 11:23:41.914118 31939 net.cpp:156] Memory required for data: 2626351104
I0315 11:23:41.914134 31939 layer_factory.hpp:77] Creating layer relu2
I0315 11:23:41.914146 31939 net.cpp:91] Creating Layer relu2
I0315 11:23:41.914155 31939 net.cpp:425] relu2 <- conv2
I0315 11:23:41.914165 31939 net.cpp:386] relu2 -> conv2 (in-place)
I0315 11:23:41.914407 31939 net.cpp:141] Setting up relu2
I0315 11:23:41.914428 31939 net.cpp:148] Top shape: 512 256 27 27 (95551488)
I0315 11:23:41.914436 31939 net.cpp:156] Memory required for data: 3008557056
I0315 11:23:41.914444 31939 layer_factory.hpp:77] Creating layer norm2
I0315 11:23:41.914458 31939 net.cpp:91] Creating Layer norm2
I0315 11:23:41.914465 31939 net.cpp:425] norm2 <- conv2
I0315 11:23:41.914477 31939 net.cpp:399] norm2 -> norm2
I0315 11:23:41.914929 31939 net.cpp:141] Setting up norm2
I0315 11:23:41.914952 31939 net.cpp:148] Top shape: 512 256 27 27 (95551488)
I0315 11:23:41.914960 31939 net.cpp:156] Memory required for data: 3390763008
I0315 11:23:41.914968 31939 layer_factory.hpp:77] Creating layer pool2
I0315 11:23:41.914979 31939 net.cpp:91] Creating Layer pool2
I0315 11:23:41.914988 31939 net.cpp:425] pool2 <- norm2
I0315 11:23:41.914999 31939 net.cpp:399] pool2 -> pool2
I0315 11:23:41.915058 31939 net.cpp:141] Setting up pool2
I0315 11:23:41.915079 31939 net.cpp:148] Top shape: 512 256 13 13 (22151168)
I0315 11:23:41.915089 31939 net.cpp:156] Memory required for data: 3479367680
I0315 11:23:41.915107 31939 layer_factory.hpp:77] Creating layer conv3
I0315 11:23:41.915132 31939 net.cpp:91] Creating Layer conv3
I0315 11:23:41.915141 31939 net.cpp:425] conv3 <- pool2
I0315 11:23:41.915153 31939 net.cpp:399] conv3 -> conv3
I0315 11:23:41.955823 31939 net.cpp:141] Setting up conv3
I0315 11:23:41.955860 31939 net.cpp:148] Top shape: 512 384 13 13 (33226752)
I0315 11:23:41.955869 31939 net.cpp:156] Memory required for data: 3612274688
I0315 11:23:41.955889 31939 layer_factory.hpp:77] Creating layer relu3
I0315 11:23:41.955905 31939 net.cpp:91] Creating Layer relu3
I0315 11:23:41.955914 31939 net.cpp:425] relu3 <- conv3
I0315 11:23:41.955926 31939 net.cpp:386] relu3 -> conv3 (in-place)
I0315 11:23:41.956171 31939 net.cpp:141] Setting up relu3
I0315 11:23:41.956192 31939 net.cpp:148] Top shape: 512 384 13 13 (33226752)
I0315 11:23:41.956200 31939 net.cpp:156] Memory required for data: 3745181696
I0315 11:23:41.956208 31939 layer_factory.hpp:77] Creating layer conv4
I0315 11:23:41.956238 31939 net.cpp:91] Creating Layer conv4
I0315 11:23:41.956249 31939 net.cpp:425] conv4 <- conv3
I0315 11:23:41.956261 31939 net.cpp:399] conv4 -> conv4
I0315 11:23:41.987994 31939 net.cpp:141] Setting up conv4
I0315 11:23:41.988032 31939 net.cpp:148] Top shape: 512 384 13 13 (33226752)
I0315 11:23:41.988041 31939 net.cpp:156] Memory required for data: 3878088704
I0315 11:23:41.988056 31939 layer_factory.hpp:77] Creating layer relu4
I0315 11:23:41.988093 31939 net.cpp:91] Creating Layer relu4
I0315 11:23:41.988104 31939 net.cpp:425] relu4 <- conv4
I0315 11:23:41.988117 31939 net.cpp:386] relu4 -> conv4 (in-place)
I0315 11:23:41.988369 31939 net.cpp:141] Setting up relu4
I0315 11:23:41.988390 31939 net.cpp:148] Top shape: 512 384 13 13 (33226752)
I0315 11:23:41.988399 31939 net.cpp:156] Memory required for data: 4010995712
I0315 11:23:41.988420 31939 layer_factory.hpp:77] Creating layer conv5
I0315 11:23:41.988438 31939 net.cpp:91] Creating Layer conv5
I0315 11:23:41.988447 31939 net.cpp:425] conv5 <- conv4
I0315 11:23:41.988461 31939 net.cpp:399] conv5 -> conv5
I0315 11:23:42.010732 31939 net.cpp:141] Setting up conv5
I0315 11:23:42.010761 31939 net.cpp:148] Top shape: 512 256 13 13 (22151168)
I0315 11:23:42.010771 31939 net.cpp:156] Memory required for data: 4099600384
I0315 11:23:42.010789 31939 layer_factory.hpp:77] Creating layer relu5
I0315 11:23:42.010818 31939 net.cpp:91] Creating Layer relu5
I0315 11:23:42.010829 31939 net.cpp:425] relu5 <- conv5
I0315 11:23:42.010840 31939 net.cpp:386] relu5 -> conv5 (in-place)
I0315 11:23:42.011093 31939 net.cpp:141] Setting up relu5
I0315 11:23:42.011114 31939 net.cpp:148] Top shape: 512 256 13 13 (22151168)
I0315 11:23:42.011122 31939 net.cpp:156] Memory required for data: 4188205056
I0315 11:23:42.011131 31939 layer_factory.hpp:77] Creating layer pool5
I0315 11:23:42.011147 31939 net.cpp:91] Creating Layer pool5
I0315 11:23:42.011154 31939 net.cpp:425] pool5 <- conv5
I0315 11:23:42.011167 31939 net.cpp:399] pool5 -> pool5
I0315 11:23:42.011234 31939 net.cpp:141] Setting up pool5
I0315 11:23:42.011252 31939 net.cpp:148] Top shape: 512 256 6 6 (4718592)
I0315 11:23:42.011260 31939 net.cpp:156] Memory required for data: 4207079424
I0315 11:23:42.011267 31939 layer_factory.hpp:77] Creating layer fc6
I0315 11:23:42.011281 31939 net.cpp:91] Creating Layer fc6
I0315 11:23:42.011288 31939 net.cpp:425] fc6 <- pool5
I0315 11:23:42.011301 31939 net.cpp:399] fc6 -> fc6
I0315 11:23:43.703874 31939 net.cpp:141] Setting up fc6
I0315 11:23:43.703935 31939 net.cpp:148] Top shape: 512 4096 (2097152)
I0315 11:23:43.703945 31939 net.cpp:156] Memory required for data: 4215468032
I0315 11:23:43.703975 31939 layer_factory.hpp:77] Creating layer relu6
I0315 11:23:43.704006 31939 net.cpp:91] Creating Layer relu6
I0315 11:23:43.704025 31939 net.cpp:425] relu6 <- fc6
I0315 11:23:43.704041 31939 net.cpp:386] relu6 -> fc6 (in-place)
I0315 11:23:43.705138 31939 net.cpp:141] Setting up relu6
I0315 11:23:43.705160 31939 net.cpp:148] Top shape: 512 4096 (2097152)
I0315 11:23:43.705168 31939 net.cpp:156] Memory required for data: 4223856640
I0315 11:23:43.705175 31939 layer_factory.hpp:77] Creating layer drop6
I0315 11:23:43.705198 31939 net.cpp:91] Creating Layer drop6
I0315 11:23:43.705207 31939 net.cpp:425] drop6 <- fc6
I0315 11:23:43.705217 31939 net.cpp:386] drop6 -> fc6 (in-place)
I0315 11:23:43.705274 31939 net.cpp:141] Setting up drop6
I0315 11:23:43.705288 31939 net.cpp:148] Top shape: 512 4096 (2097152)
I0315 11:23:43.705296 31939 net.cpp:156] Memory required for data: 4232245248
I0315 11:23:43.705304 31939 layer_factory.hpp:77] Creating layer fc7
I0315 11:23:43.705327 31939 net.cpp:91] Creating Layer fc7
I0315 11:23:43.705337 31939 net.cpp:425] fc7 <- fc6
I0315 11:23:43.705353 31939 net.cpp:399] fc7 -> fc7
I0315 11:23:44.465986 31939 net.cpp:141] Setting up fc7
I0315 11:23:44.466030 31939 net.cpp:148] Top shape: 512 4096 (2097152)
I0315 11:23:44.466039 31939 net.cpp:156] Memory required for data: 4240633856
I0315 11:23:44.466056 31939 layer_factory.hpp:77] Creating layer relu7
I0315 11:23:44.466073 31939 net.cpp:91] Creating Layer relu7
I0315 11:23:44.466083 31939 net.cpp:425] relu7 <- fc7
I0315 11:23:44.466095 31939 net.cpp:386] relu7 -> fc7 (in-place)
I0315 11:23:44.466431 31939 net.cpp:141] Setting up relu7
I0315 11:23:44.466452 31939 net.cpp:148] Top shape: 512 4096 (2097152)
I0315 11:23:44.466460 31939 net.cpp:156] Memory required for data: 4249022464
I0315 11:23:44.466470 31939 layer_factory.hpp:77] Creating layer drop7
I0315 11:23:44.466506 31939 net.cpp:91] Creating Layer drop7
I0315 11:23:44.466516 31939 net.cpp:425] drop7 <- fc7
I0315 11:23:44.466528 31939 net.cpp:386] drop7 -> fc7 (in-place)
I0315 11:23:44.466575 31939 net.cpp:141] Setting up drop7
I0315 11:23:44.466593 31939 net.cpp:148] Top shape: 512 4096 (2097152)
I0315 11:23:44.466600 31939 net.cpp:156] Memory required for data: 4257411072
I0315 11:23:44.466608 31939 layer_factory.hpp:77] Creating layer fc8_chh
I0315 11:23:44.466624 31939 net.cpp:91] Creating Layer fc8_chh
I0315 11:23:44.466632 31939 net.cpp:425] fc8_chh <- fc7
I0315 11:23:44.466645 31939 net.cpp:399] fc8_chh -> fc8_chh
I0315 11:23:44.478478 31939 net.cpp:141] Setting up fc8_chh
I0315 11:23:44.478512 31939 net.cpp:148] Top shape: 512 60 (30720)
I0315 11:23:44.478520 31939 net.cpp:156] Memory required for data: 4257533952
I0315 11:23:44.478535 31939 layer_factory.hpp:77] Creating layer fc8_chh_fc8_chh_0_split
I0315 11:23:44.478550 31939 net.cpp:91] Creating Layer fc8_chh_fc8_chh_0_split
I0315 11:23:44.478560 31939 net.cpp:425] fc8_chh_fc8_chh_0_split <- fc8_chh
I0315 11:23:44.478574 31939 net.cpp:399] fc8_chh_fc8_chh_0_split -> fc8_chh_fc8_chh_0_split_0
I0315 11:23:44.478590 31939 net.cpp:399] fc8_chh_fc8_chh_0_split -> fc8_chh_fc8_chh_0_split_1
I0315 11:23:44.478677 31939 net.cpp:141] Setting up fc8_chh_fc8_chh_0_split
I0315 11:23:44.478694 31939 net.cpp:148] Top shape: 512 60 (30720)
I0315 11:23:44.478703 31939 net.cpp:148] Top shape: 512 60 (30720)
I0315 11:23:44.478710 31939 net.cpp:156] Memory required for data: 4257779712
I0315 11:23:44.478718 31939 layer_factory.hpp:77] Creating layer accuracy
I0315 11:23:44.478731 31939 net.cpp:91] Creating Layer accuracy
I0315 11:23:44.478740 31939 net.cpp:425] accuracy <- fc8_chh_fc8_chh_0_split_0
I0315 11:23:44.478749 31939 net.cpp:425] accuracy <- label_data_1_split_0
I0315 11:23:44.478762 31939 net.cpp:399] accuracy -> accuracy
…
I0315 11:23:44.481092 31939 solver.cpp:181] Creating test net (#0) specified by net file: ./train_val.prototxt
I0315 11:23:44.481163 31939 net.cpp:313] The NetState phase (1) differed from the phase (0) specified by a rule in layer data
I0315 11:23:44.481472 31939 net.cpp:49] Initializing net from parameters: 
name: "AlexNet"
state {
  phase: TEST
}
layer {
  name: "data"
  type: "Data"
  top: "data"
  top: "label"
  include {
    phase: TEST
  }
  transform_param {
    mirror: false
    crop_size: 227
    mean_file: "mean.binaryproto"
  }
  data_param {
    source: "skeleton_test_lmdb"
    batch_size: 500
    backend: LMDB
  }
}
layer {
  name: "conv1"
  type: "Convolution"
  bottom: "data"
  top: "conv1"
  param {
    lr_mult: 1
    decay_mult: 1
  }
  param {
    lr_mult: 2
    decay_mult: 0
  }
  convolution_param {
    num_output: 96
    kernel_size: 11
    stride: 4
    weight_filler {
      type: "gaussian"
      std: 0.01
    }
    bias_filler {
      type: "constant"
      value: 0
    }
  }
}
layer {
  name: "relu1"
  type: "ReLU"
  bottom: "conv1"
  top: "conv1"
}
layer {
  name: "norm1"
  type: "LRN"
  bottom: "conv1"
  top: "norm1"
  lrn_param {
    local_size: 5
    alpha: 0.0001
    beta: 0.75
  }
}
layer {
  name: "pool1"
  type: "Pooling"
  bottom: "norm1"
  top: "pool1"
  pooling_param {
    pool: MAX
    kernel_size: 3
    stride: 2
  }
}
layer {
  name: "conv2"
  type: "Convolution"
  bottom: "pool1"
  top: "conv2"
  param {
    lr_mult: 1
    decay_mult: 1
  }
  param {
    lr_mult: 2
    decay_mult: 0
  }
  convolution_param {
    num_output: 256
    pad: 2
    kernel_size: 5
    group: 2
    weight_filler {
      type: "gaussian"
      std: 0.01
    }
    bias_filler {
      type: "constant"
      value: 0.1
    }
  }
}
layer {
  name: "relu2"
  type: "ReLU"
  bottom: "conv2"
  top: "conv2"
}
layer {
  name: "norm2"
  type: "LRN"
  bottom: "conv2"
  top: "norm2"
  lrn_param {
    local_size: 5
    alpha: 0.0001
    beta: 0.75
  }
}
layer {
  name: "pool2"
  type: "Pooling"
  bottom: "norm2"
  top: "pool2"
  pooling_param {
    pool: MAX
    kernel_size: 3
    stride: 2
  }
}
layer {
  name: "conv3"
  type: "Convolution"
  bottom: "pool2"
  top: "conv3"
  param {
    lr_mult: 1
    decay_mult: 1
  }
  param {
    lr_mult: 2
    decay_mult: 0
  }
  convolution_param {
    num_output: 384
    pad: 1
    kernel_size: 3
    weight_filler {
      type: "gaussian"
      std: 0.01
    }
    bias_filler {
      type: "constant"
      value: 0
    }
  }
}
layer {
  name: "relu3"
  type: "ReLU"
  bottom: "conv3"
  top: "conv3"
}
layer {
  name: "conv4"
  type: "Convolution"
  bottom: "conv3"
  top: "conv4"
  param {
    lr_mult: 1
    decay_mult: 1
  }
  param {
    lr_mult: 2
    decay_mult: 0
  }
  convolution_param {
    num_output: 384
    pad: 1
    kernel_size: 3
    group: 2
    weight_filler {
      type: "gaussian"
      std: 0.01
    }
    bias_filler {
      type: "constant"
      value: 0.1
    }
  }
}
layer {
  name: "relu4"
  type: "ReLU"
  bottom: "conv4"
  top: "conv4"
}
layer {
  name: "conv5"
  type: "Convolution"
  bottom: "conv4"
  top: "conv5"
  param {
    lr_mult: 1
    decay_mult: 1
  }
  param {
    lr_mult: 2
    decay_mult: 0
  }
  convolution_param {
    num_output: 256
    pad: 1
    kernel_size: 3
    group: 2
    weight_filler {
      type: "gaussian"
      std: 0.01
    }
    bias_filler {
      type: "constant"
      value: 0.1
    }
  }
}
layer {
  name: "relu5"
  type: "ReLU"
  bottom: "conv5"
  top: "conv5"
}
layer {
  name: "pool5"
  type: "Pooling"
  bottom: "conv5"
  top: "pool5"
  pooling_param {
    pool: MAX
    kernel_size: 3
    stride: 2
  }
}
layer {
  name: "fc6"
  type: "InnerProduct"
  bottom: "pool5"
  top: "fc6"
  param {
    lr_mult: 1
    decay_mult: 1
  }
  param {
    lr_mult: 2
    decay_mult: 0
  }
  inner_product_param {
    num_output: 4096
    weight_filler {
      type: "gaussian"
      std: 0.005
    }
    bias_filler {
      type: "constant"
      value: 0.1
    }
  }
}
layer {
  name: "relu6"
  type: "ReLU"
  bottom: "fc6"
  top: "fc6"
}
layer {
  name: "drop6"
  type: "Dropout"
  bottom: "fc6"
  top: "fc6"
  dropout_param {
    dropout_ratio: 0.5
  }
}
layer {
  name: "fc7"
  type: "InnerProduct"
  bottom: "fc6"
  top: "fc7"
  param {
    lr_mult: 1
    decay_mult: 1
  }
  param {
    lr_mult: 2
    decay_mult: 0
  }
  inner_product_param {
    num_output: 4096
    weight_filler {
      type: "gaussian"
      std: 0.005
    }
    bias_filler {
      type: "constant"
      value: 0.1
    }
  }
}
layer {
  name: "relu7"
  type: "ReLU"
  bottom: "fc7"
  top: "fc7"
}
layer {
  name: "drop7"
  type: "Dropout"
  bottom: "fc7"
  top: "fc7"
  dropout_param {
    dropout_ratio: 0.5
  }
}
layer {
  name: "fc8_chh"
  type: "InnerProduct"
  bottom: "fc7"
  top: "fc8_chh"
  param {
    lr_mult: 1
    decay_mult: 1
  }
  param {
    lr_mult: 2
    decay_mult: 0
  }
  inner_product_param {
    num_output: 60
    weight_filler {
      type: "gaussian"
      std: 0.01
    }
    bias_filler {
      type: "constant"
      value: 0
    }
  }
}
layer {
  name: "accuracy"
  type: "Accuracy"
  bottom: "fc8_chh"
  bottom: "label"
  top: "accuracy"
}
layer {
  name: "loss"
  type: "SoftmaxWithLoss"
  bottom: "fc8_chh"
  bottom: "label"
  top: "loss"
}
I0315 11:23:44.481647 31939 layer_factory.hpp:77] Creating layer data
I0315 11:23:44.482455 31939 net.cpp:91] Creating Layer data
I0315 11:23:44.482475 31939 net.cpp:399] data -> data
I0315 11:23:44.482492 31939 net.cpp:399] data -> label
I0315 11:23:44.482507 31939 data_transformer.cpp:25] Loading mean file from: mean.binaryproto
I0315 11:23:44.512338 31967 db_lmdb.cpp:38] Opened lmdb skeleton_test_lmdb
I0315 11:23:44.577852 31939 data_layer.cpp:41] output data size: 500,3,227,227
I0315 11:23:45.386776 31939 net.cpp:141] Setting up data
I0315 11:23:45.386814 31939 net.cpp:148] Top shape: 500 3 227 227 (77293500)
I0315 11:23:45.386826 31939 net.cpp:148] Top shape: 500 (500)
I0315 11:23:45.386833 31939 net.cpp:156] Memory required for data: 309176000
I0315 11:23:45.386844 31939 layer_factory.hpp:77] Creating layer label_data_1_split
I0315 11:23:45.386864 31939 net.cpp:91] Creating Layer label_data_1_split
I0315 11:23:45.386873 31939 net.cpp:425] label_data_1_split <- label
I0315 11:23:45.386888 31939 net.cpp:399] label_data_1_split -> label_data_1_split_0
I0315 11:23:45.386905 31939 net.cpp:399] label_data_1_split -> label_data_1_split_1
I0315 11:23:45.387001 31939 net.cpp:141] Setting up label_data_1_split
I0315 11:23:45.387019 31939 net.cpp:148] Top shape: 500 (500)
I0315 11:23:45.387028 31939 net.cpp:148] Top shape: 500 (500)
I0315 11:23:45.387035 31939 net.cpp:156] Memory required for data: 309180000
I0315 11:23:45.387043 31939 layer_factory.hpp:77] Creating layer conv1
I0315 11:23:45.387065 31939 net.cpp:91] Creating Layer conv1
I0315 11:23:45.387073 31939 net.cpp:425] conv1 <- data
I0315 11:23:45.387086 31939 net.cpp:399] conv1 -> conv1
I0315 11:23:45.465802 31939 net.cpp:141] Setting up conv1
I0315 11:23:45.465842 31939 net.cpp:148] Top shape: 500 96 55 55 (145200000)
I0315 11:23:45.465850 31939 net.cpp:156] Memory required for data: 889980000
I0315 11:23:45.465896 31939 layer_factory.hpp:77] Creating layer relu1
I0315 11:23:45.465914 31939 net.cpp:91] Creating Layer relu1
I0315 11:23:45.465924 31939 net.cpp:425] relu1 <- conv1
I0315 11:23:45.465935 31939 net.cpp:386] relu1 -> conv1 (in-place)
I0315 11:23:45.466186 31939 net.cpp:141] Setting up relu1
I0315 11:23:45.466207 31939 net.cpp:148] Top shape: 500 96 55 55 (145200000)
I0315 11:23:45.466219 31939 net.cpp:156] Memory required for data: 1470780000
I0315 11:23:45.466240 31939 layer_factory.hpp:77] Creating layer norm1
I0315 11:23:45.466258 31939 net.cpp:91] Creating Layer norm1
I0315 11:23:45.466265 31939 net.cpp:425] norm1 <- conv1
I0315 11:23:45.466276 31939 net.cpp:399] norm1 -> norm1
I0315 11:23:45.466753 31939 net.cpp:141] Setting up norm1
I0315 11:23:45.466775 31939 net.cpp:148] Top shape: 500 96 55 55 (145200000)
I0315 11:23:45.466784 31939 net.cpp:156] Memory required for data: 2051580000
I0315 11:23:45.466791 31939 layer_factory.hpp:77] Creating layer pool1
I0315 11:23:45.466804 31939 net.cpp:91] Creating Layer pool1
I0315 11:23:45.466812 31939 net.cpp:425] pool1 <- norm1
I0315 11:23:45.466823 31939 net.cpp:399] pool1 -> pool1
I0315 11:23:45.466892 31939 net.cpp:141] Setting up pool1
I0315 11:23:45.466910 31939 net.cpp:148] Top shape: 500 96 27 27 (34992000)
I0315 11:23:45.466917 31939 net.cpp:156] Memory required for data: 2191548000
I0315 11:23:45.466925 31939 layer_factory.hpp:77] Creating layer conv2
I0315 11:23:45.466943 31939 net.cpp:91] Creating Layer conv2
I0315 11:23:45.466951 31939 net.cpp:425] conv2 <- pool1
I0315 11:23:45.466964 31939 net.cpp:399] conv2 -> conv2
I0315 11:23:45.483372 31939 net.cpp:141] Setting up conv2
I0315 11:23:45.483398 31939 net.cpp:148] Top shape: 500 256 27 27 (93312000)
I0315 11:23:45.483407 31939 net.cpp:156] Memory required for data: 2564796000
I0315 11:23:45.483423 31939 layer_factory.hpp:77] Creating layer relu2
I0315 11:23:45.483435 31939 net.cpp:91] Creating Layer relu2
I0315 11:23:45.483443 31939 net.cpp:425] relu2 <- conv2
I0315 11:23:45.483453 31939 net.cpp:386] relu2 -> conv2 (in-place)
I0315 11:23:45.483734 31939 net.cpp:141] Setting up relu2
I0315 11:23:45.483755 31939 net.cpp:148] Top shape: 500 256 27 27 (93312000)
I0315 11:23:45.483763 31939 net.cpp:156] Memory required for data: 2938044000
I0315 11:23:45.483772 31939 layer_factory.hpp:77] Creating layer norm2
I0315 11:23:45.483785 31939 net.cpp:91] Creating Layer norm2
I0315 11:23:45.483793 31939 net.cpp:425] norm2 <- conv2
I0315 11:23:45.483804 31939 net.cpp:399] norm2 -> norm2
I0315 11:23:45.484438 31939 net.cpp:141] Setting up norm2
I0315 11:23:45.484462 31939 net.cpp:148] Top shape: 500 256 27 27 (93312000)
I0315 11:23:45.484470 31939 net.cpp:156] Memory required for data: 3311292000
I0315 11:23:45.484478 31939 layer_factory.hpp:77] Creating layer pool2
I0315 11:23:45.484490 31939 net.cpp:91] Creating Layer pool2
I0315 11:23:45.484498 31939 net.cpp:425] pool2 <- norm2
I0315 11:23:45.484591 31939 net.cpp:399] pool2 -> pool2
I0315 11:23:45.484670 31939 net.cpp:141] Setting up pool2
I0315 11:23:45.484686 31939 net.cpp:148] Top shape: 500 256 13 13 (21632000)
I0315 11:23:45.484694 31939 net.cpp:156] Memory required for data: 3397820000
I0315 11:23:45.484701 31939 layer_factory.hpp:77] Creating layer conv3
I0315 11:23:45.484717 31939 net.cpp:91] Creating Layer conv3
I0315 11:23:45.484732 31939 net.cpp:425] conv3 <- pool2
I0315 11:23:45.484745 31939 net.cpp:399] conv3 -> conv3
I0315 11:23:45.527282 31939 net.cpp:141] Setting up conv3
I0315 11:23:45.527319 31939 net.cpp:148] Top shape: 500 384 13 13 (32448000)
I0315 11:23:45.527328 31939 net.cpp:156] Memory required for data: 3527612000
I0315 11:23:45.527349 31939 layer_factory.hpp:77] Creating layer relu3
I0315 11:23:45.527365 31939 net.cpp:91] Creating Layer relu3
I0315 11:23:45.527374 31939 net.cpp:425] relu3 <- conv3
I0315 11:23:45.527386 31939 net.cpp:386] relu3 -> conv3 (in-place)
I0315 11:23:45.527829 31939 net.cpp:141] Setting up relu3
I0315 11:23:45.527853 31939 net.cpp:148] Top shape: 500 384 13 13 (32448000)
I0315 11:23:45.527861 31939 net.cpp:156] Memory required for data: 3657404000
I0315 11:23:45.527886 31939 layer_factory.hpp:77] Creating layer conv4
I0315 11:23:45.527905 31939 net.cpp:91] Creating Layer conv4
I0315 11:23:45.527915 31939 net.cpp:425] conv4 <- conv3
I0315 11:23:45.527926 31939 net.cpp:399] conv4 -> conv4
I0315 11:23:45.561695 31939 net.cpp:141] Setting up conv4
I0315 11:23:45.561722 31939 net.cpp:148] Top shape: 500 384 13 13 (32448000)
I0315 11:23:45.561729 31939 net.cpp:156] Memory required for data: 3787196000
I0315 11:23:45.561743 31939 layer_factory.hpp:77] Creating layer relu4
I0315 11:23:45.561756 31939 net.cpp:91] Creating Layer relu4
I0315 11:23:45.561765 31939 net.cpp:425] relu4 <- conv4
I0315 11:23:45.561775 31939 net.cpp:386] relu4 -> conv4 (in-place)
I0315 11:23:45.562059 31939 net.cpp:141] Setting up relu4
I0315 11:23:45.562080 31939 net.cpp:148] Top shape: 500 384 13 13 (32448000)
I0315 11:23:45.562088 31939 net.cpp:156] Memory required for data: 3916988000
I0315 11:23:45.562096 31939 layer_factory.hpp:77] Creating layer conv5
I0315 11:23:45.562114 31939 net.cpp:91] Creating Layer conv5
I0315 11:23:45.562121 31939 net.cpp:425] conv5 <- conv4
I0315 11:23:45.562136 31939 net.cpp:399] conv5 -> conv5
I0315 11:23:45.588531 31939 net.cpp:141] Setting up conv5
I0315 11:23:45.588562 31939 net.cpp:148] Top shape: 500 256 13 13 (21632000)
I0315 11:23:45.588570 31939 net.cpp:156] Memory required for data: 4003516000
I0315 11:23:45.588589 31939 layer_factory.hpp:77] Creating layer relu5
I0315 11:23:45.588603 31939 net.cpp:91] Creating Layer relu5
I0315 11:23:45.588611 31939 net.cpp:425] relu5 <- conv5
I0315 11:23:45.588624 31939 net.cpp:386] relu5 -> conv5 (in-place)
I0315 11:23:45.588891 31939 net.cpp:141] Setting up relu5
I0315 11:23:45.588913 31939 net.cpp:148] Top shape: 500 256 13 13 (21632000)
I0315 11:23:45.588922 31939 net.cpp:156] Memory required for data: 4090044000
I0315 11:23:45.588928 31939 layer_factory.hpp:77] Creating layer pool5
I0315 11:23:45.588945 31939 net.cpp:91] Creating Layer pool5
I0315 11:23:45.588953 31939 net.cpp:425] pool5 <- conv5
I0315 11:23:45.588965 31939 net.cpp:399] pool5 -> pool5
I0315 11:23:45.589046 31939 net.cpp:141] Setting up pool5
I0315 11:23:45.589063 31939 net.cpp:148] Top shape: 500 256 6 6 (4608000)
I0315 11:23:45.589071 31939 net.cpp:156] Memory required for data: 4108476000
I0315 11:23:45.589078 31939 layer_factory.hpp:77] Creating layer fc6
I0315 11:23:45.589094 31939 net.cpp:91] Creating Layer fc6
I0315 11:23:45.589102 31939 net.cpp:425] fc6 <- pool5
I0315 11:23:45.589117 31939 net.cpp:399] fc6 -> fc6
I0315 11:23:47.346959 31939 net.cpp:141] Setting up fc6
I0315 11:23:47.347004 31939 net.cpp:148] Top shape: 500 4096 (2048000)
I0315 11:23:47.347013 31939 net.cpp:156] Memory required for data: 4116668000
I0315 11:23:47.347034 31939 layer_factory.hpp:77] Creating layer relu6
I0315 11:23:47.347064 31939 net.cpp:91] Creating Layer relu6
I0315 11:23:47.347076 31939 net.cpp:425] relu6 <- fc6
I0315 11:23:47.347095 31939 net.cpp:386] relu6 -> fc6 (in-place)
I0315 11:23:47.347890 31939 net.cpp:141] Setting up relu6
I0315 11:23:47.347913 31939 net.cpp:148] Top shape: 500 4096 (2048000)
I0315 11:23:47.347921 31939 net.cpp:156] Memory required for data: 4124860000
I0315 11:23:47.347930 31939 layer_factory.hpp:77] Creating layer drop6
I0315 11:23:47.347945 31939 net.cpp:91] Creating Layer drop6
I0315 11:23:47.347954 31939 net.cpp:425] drop6 <- fc6
I0315 11:23:47.347966 31939 net.cpp:386] drop6 -> fc6 (in-place)
I0315 11:23:47.348017 31939 net.cpp:141] Setting up drop6
I0315 11:23:47.348036 31939 net.cpp:148] Top shape: 500 4096 (2048000)
I0315 11:23:47.348043 31939 net.cpp:156] Memory required for data: 4133052000
I0315 11:23:47.348050 31939 layer_factory.hpp:77] Creating layer fc7
I0315 11:23:47.348067 31939 net.cpp:91] Creating Layer fc7
I0315 11:23:47.348075 31939 net.cpp:425] fc7 <- fc6
I0315 11:23:47.348089 31939 net.cpp:399] fc7 -> fc7
I0315 11:23:48.077014 31939 net.cpp:141] Setting up fc7
I0315 11:23:48.077082 31939 net.cpp:148] Top shape: 500 4096 (2048000)
I0315 11:23:48.077098 31939 net.cpp:156] Memory required for data: 4141244000
I0315 11:23:48.077178 31939 layer_factory.hpp:77] Creating layer relu7
I0315 11:23:48.077214 31939 net.cpp:91] Creating Layer relu7
I0315 11:23:48.077236 31939 net.cpp:425] relu7 <- fc7
I0315 11:23:48.077263 31939 net.cpp:386] relu7 -> fc7 (in-place)
I0315 11:23:48.077965 31939 net.cpp:141] Setting up relu7
I0315 11:23:48.078002 31939 net.cpp:148] Top shape: 500 4096 (2048000)
I0315 11:23:48.078016 31939 net.cpp:156] Memory required for data: 4149436000
I0315 11:23:48.078029 31939 layer_factory.hpp:77] Creating layer drop7
I0315 11:23:48.078060 31939 net.cpp:91] Creating Layer drop7
I0315 11:23:48.078078 31939 net.cpp:425] drop7 <- fc7
I0315 11:23:48.078104 31939 net.cpp:386] drop7 -> fc7 (in-place)
I0315 11:23:48.078200 31939 net.cpp:141] Setting up drop7
I0315 11:23:48.078229 31939 net.cpp:148] Top shape: 500 4096 (2048000)
I0315 11:23:48.078243 31939 net.cpp:156] Memory required for data: 4157628000
I0315 11:23:48.078255 31939 layer_factory.hpp:77] Creating layer fc8_chh
I0315 11:23:48.078284 31939 net.cpp:91] Creating Layer fc8_chh
I0315 11:23:48.078299 31939 net.cpp:425] fc8_chh <- fc7
I0315 11:23:48.078325 31939 net.cpp:399] fc8_chh -> fc8_chh
I0315 11:23:48.094899 31939 net.cpp:141] Setting up fc8_chh
I0315 11:23:48.094957 31939 net.cpp:148] Top shape: 500 60 (30000)
I0315 11:23:48.094967 31939 net.cpp:156] Memory required for data: 4157748000
I0315 11:23:48.094990 31939 layer_factory.hpp:77] Creating layer fc8_chh_fc8_chh_0_split
I0315 11:23:48.095021 31939 net.cpp:91] Creating Layer fc8_chh_fc8_chh_0_split
I0315 11:23:48.095036 31939 net.cpp:425] fc8_chh_fc8_chh_0_split <- fc8_chh
I0315 11:23:48.095057 31939 net.cpp:399] fc8_chh_fc8_chh_0_split -> fc8_chh_fc8_chh_0_split_0
I0315 11:23:48.095083 31939 net.cpp:399] fc8_chh_fc8_chh_0_split -> fc8_chh_fc8_chh_0_split_1
I0315 11:23:48.095224 31939 net.cpp:141] Setting up fc8_chh_fc8_chh_0_split
I0315 11:23:48.095255 31939 net.cpp:148] Top shape: 500 60 (30000)
I0315 11:23:48.095278 31939 net.cpp:148] Top shape: 500 60 (30000)
I0315 11:23:48.095288 31939 net.cpp:156] Memory required for data: 4157988000
I0315 11:23:48.095302 31939 layer_factory.hpp:77] Creating layer accuracy
I0315 11:23:48.095325 31939 net.cpp:91] Creating Layer accuracy
I0315 11:23:48.095342 31939 net.cpp:425] accuracy <- fc8_chh_fc8_chh_0_split_0
I0315 11:23:48.095361 31939 net.cpp:425] accuracy <- label_data_1_split_0
I0315 11:23:48.095383 31939 net.cpp:399] accuracy -> accuracy
…
