…
I0314 23:57:38.088040 28743 solver.cpp:91] Creating training net from net file: ./train_val.prototxt
I0314 23:57:38.095511 28743 net.cpp:313] The NetState phase (0) differed from the phase (1) specified by a rule in layer data
I0314 23:57:38.095928 28743 net.cpp:49] Initializing net from parameters: 
name: "AlexNet"
state {
  phase: TRAIN
}
layer {
  name: "data"
  type: "Data"
  top: "data"
  top: "label"
  include {
    phase: TRAIN
  }
  transform_param {
    mirror: true
    crop_size: 227
    mean_file: "mean.binaryproto"
  }
  data_param {
    source: "skeleton_train_lmdb"
    batch_size: 512
    backend: LMDB
  }
}
layer {
  name: "conv1"
  type: "Convolution"
  bottom: "data"
  top: "conv1"
  param {
    lr_mult: 1
    decay_mult: 1
  }
  param {
    lr_mult: 2
    decay_mult: 0
  }
  convolution_param {
    num_output: 96
    kernel_size: 11
    stride: 4
    weight_filler {
      type: "gaussian"
      std: 0.01
    }
    bias_filler {
      type: "constant"
      value: 0
    }
  }
}
layer {
  name: "relu1"
  type: "ReLU"
  bottom: "conv1"
  top: "conv1"
}
layer {
  name: "norm1"
  type: "LRN"
  bottom: "conv1"
  top: "norm1"
  lrn_param {
    local_size: 5
    alpha: 0.0001
    beta: 0.75
  }
}
layer {
  name: "pool1"
  type: "Pooling"
  bottom: "norm1"
  top: "pool1"
  pooling_param {
    pool: MAX
    kernel_size: 3
    stride: 2
  }
}
layer {
  name: "conv2"
  type: "Convolution"
  bottom: "pool1"
  top: "conv2"
  param {
    lr_mult: 1
    decay_mult: 1
  }
  param {
    lr_mult: 2
    decay_mult: 0
  }
  convolution_param {
    num_output: 256
    pad: 2
    kernel_size: 5
    group: 2
    weight_filler {
      type: "gaussian"
      std: 0.01
    }
    bias_filler {
      type: "constant"
      value: 0.1
    }
  }
}
layer {
  name: "relu2"
  type: "ReLU"
  bottom: "conv2"
  top: "conv2"
}
layer {
  name: "norm2"
  type: "LRN"
  bottom: "conv2"
  top: "norm2"
  lrn_param {
    local_size: 5
    alpha: 0.0001
    beta: 0.75
  }
}
layer {
  name: "pool2"
  type: "Pooling"
  bottom: "norm2"
  top: "pool2"
  pooling_param {
    pool: MAX
    kernel_size: 3
    stride: 2
  }
}
layer {
  name: "conv3"
  type: "Convolution"
  bottom: "pool2"
  top: "conv3"
  param {
    lr_mult: 1
    decay_mult: 1
  }
  param {
    lr_mult: 2
    decay_mult: 0
  }
  convolution_param {
    num_output: 384
    pad: 1
    kernel_size: 3
    weight_filler {
      type: "gaussian"
      std: 0.01
    }
    bias_filler {
      type: "constant"
      value: 0
    }
  }
}
layer {
  name: "relu3"
  type: "ReLU"
  bottom: "conv3"
  top: "conv3"
}
layer {
  name: "conv4"
  type: "Convolution"
  bottom: "conv3"
  top: "conv4"
  param {
    lr_mult: 1
    decay_mult: 1
  }
  param {
    lr_mult: 2
    decay_mult: 0
  }
  convolution_param {
    num_output: 384
    pad: 1
    kernel_size: 3
    group: 2
    weight_filler {
      type: "gaussian"
      std: 0.01
    }
    bias_filler {
      type: "constant"
      value: 0.1
    }
  }
}
layer {
  name: "relu4"
  type: "ReLU"
  bottom: "conv4"
  top: "conv4"
}
layer {
  name: "conv5"
  type: "Convolution"
  bottom: "conv4"
  top: "conv5"
  param {
    lr_mult: 1
    decay_mult: 1
  }
  param {
    lr_mult: 2
    decay_mult: 0
  }
  convolution_param {
    num_output: 256
    pad: 1
    kernel_size: 3
    group: 2
    weight_filler {
      type: "gaussian"
      std: 0.01
    }
    bias_filler {
      type: "constant"
      value: 0.1
    }
  }
}
layer {
  name: "relu5"
  type: "ReLU"
  bottom: "conv5"
  top: "conv5"
}
layer {
  name: "pool5"
  type: "Pooling"
  bottom: "conv5"
  top: "pool5"
  pooling_param {
    pool: MAX
    kernel_size: 3
    stride: 2
  }
}
layer {
  name: "fc6"
  type: "InnerProduct"
  bottom: "pool5"
  top: "fc6"
  param {
    lr_mult: 1
    decay_mult: 1
  }
  param {
    lr_mult: 2
    decay_mult: 0
  }
  inner_product_param {
    num_output: 4096
    weight_filler {
      type: "gaussian"
      std: 0.005
    }
    bias_filler {
      type: "constant"
      value: 0.1
    }
  }
}
layer {
  name: "relu6"
  type: "ReLU"
  bottom: "fc6"
  top: "fc6"
}
layer {
  name: "drop6"
  type: "Dropout"
  bottom: "fc6"
  top: "fc6"
  dropout_param {
    dropout_ratio: 0.5
  }
}
layer {
  name: "fc7"
  type: "InnerProduct"
  bottom: "fc6"
  top: "fc7"
  param {
    lr_mult: 1
    decay_mult: 1
  }
  param {
    lr_mult: 2
    decay_mult: 0
  }
  inner_product_param {
    num_output: 4096
    weight_filler {
      type: "gaussian"
      std: 0.005
    }
    bias_filler {
      type: "constant"
      value: 0.1
    }
  }
}
layer {
  name: "relu7"
  type: "ReLU"
  bottom: "fc7"
  top: "fc7"
}
layer {
  name: "drop7"
  type: "Dropout"
  bottom: "fc7"
  top: "fc7"
  dropout_param {
    dropout_ratio: 0.5
  }
}
layer {
  name: "fc8_chh"
  type: "InnerProduct"
  bottom: "fc7"
  top: "fc8_chh"
  param {
    lr_mult: 1
    decay_mult: 1
  }
  param {
    lr_mult: 2
    decay_mult: 0
  }
  inner_product_param {
    num_output: 60
    weight_filler {
      type: "gaussian"
      std: 0.01
    }
    bias_filler {
      type: "constant"
      value: 0
    }
  }
}
layer {
  name: "accuracy"
  type: "Accuracy"
  bottom: "fc8_chh"
  bottom: "label"
  top: "accuracy"
}
layer {
  name: "loss"
  type: "SoftmaxWithLoss"
  bottom: "fc8_chh"
  bottom: "label"
  top: "loss"
}
I0314 23:57:38.098655 28743 layer_factory.hpp:77] Creating layer data
I0314 23:57:38.099550 28743 net.cpp:91] Creating Layer data
I0314 23:57:38.099588 28743 net.cpp:399] data -> data
I0314 23:57:38.099643 28743 net.cpp:399] data -> label
I0314 23:57:38.099681 28743 data_transformer.cpp:25] Loading mean file from: mean.binaryproto
I0314 23:57:38.100832 28748 db_lmdb.cpp:38] Opened lmdb skeleton_train_lmdb
I0314 23:57:38.247958 28743 data_layer.cpp:41] output data size: 512,3,227,227
I0314 23:57:38.977727 28743 net.cpp:141] Setting up data
I0314 23:57:38.977828 28743 net.cpp:148] Top shape: 512 3 227 227 (79148544)
I0314 23:57:38.977843 28743 net.cpp:148] Top shape: 512 (512)
I0314 23:57:38.977851 28743 net.cpp:156] Memory required for data: 316596224
I0314 23:57:38.977874 28743 layer_factory.hpp:77] Creating layer label_data_1_split
I0314 23:57:38.977951 28743 net.cpp:91] Creating Layer label_data_1_split
I0314 23:57:38.977972 28743 net.cpp:425] label_data_1_split <- label
I0314 23:57:38.978011 28743 net.cpp:399] label_data_1_split -> label_data_1_split_0
I0314 23:57:38.978046 28743 net.cpp:399] label_data_1_split -> label_data_1_split_1
I0314 23:57:38.978150 28743 net.cpp:141] Setting up label_data_1_split
I0314 23:57:38.978175 28743 net.cpp:148] Top shape: 512 (512)
I0314 23:57:38.978193 28743 net.cpp:148] Top shape: 512 (512)
I0314 23:57:38.978211 28743 net.cpp:156] Memory required for data: 316600320
I0314 23:57:38.978224 28743 layer_factory.hpp:77] Creating layer conv1
I0314 23:57:38.978271 28743 net.cpp:91] Creating Layer conv1
I0314 23:57:38.978281 28743 net.cpp:425] conv1 <- data
I0314 23:57:38.978294 28743 net.cpp:399] conv1 -> conv1
I0314 23:57:40.282793 28743 net.cpp:141] Setting up conv1
I0314 23:57:40.282846 28743 net.cpp:148] Top shape: 512 96 55 55 (148684800)
I0314 23:57:40.282855 28743 net.cpp:156] Memory required for data: 911339520
I0314 23:57:40.282893 28743 layer_factory.hpp:77] Creating layer relu1
I0314 23:57:40.282923 28743 net.cpp:91] Creating Layer relu1
I0314 23:57:40.282934 28743 net.cpp:425] relu1 <- conv1
I0314 23:57:40.282946 28743 net.cpp:386] relu1 -> conv1 (in-place)
I0314 23:57:40.283370 28743 net.cpp:141] Setting up relu1
I0314 23:57:40.283391 28743 net.cpp:148] Top shape: 512 96 55 55 (148684800)
I0314 23:57:40.283399 28743 net.cpp:156] Memory required for data: 1506078720
I0314 23:57:40.283408 28743 layer_factory.hpp:77] Creating layer norm1
I0314 23:57:40.283439 28743 net.cpp:91] Creating Layer norm1
I0314 23:57:40.283475 28743 net.cpp:425] norm1 <- conv1
I0314 23:57:40.283488 28743 net.cpp:399] norm1 -> norm1
I0314 23:57:40.298210 28743 net.cpp:141] Setting up norm1
I0314 23:57:40.298254 28743 net.cpp:148] Top shape: 512 96 55 55 (148684800)
I0314 23:57:40.298262 28743 net.cpp:156] Memory required for data: 2100817920
I0314 23:57:40.298272 28743 layer_factory.hpp:77] Creating layer pool1
I0314 23:57:40.298290 28743 net.cpp:91] Creating Layer pool1
I0314 23:57:40.298300 28743 net.cpp:425] pool1 <- norm1
I0314 23:57:40.298317 28743 net.cpp:399] pool1 -> pool1
I0314 23:57:40.298463 28743 net.cpp:141] Setting up pool1
I0314 23:57:40.298483 28743 net.cpp:148] Top shape: 512 96 27 27 (35831808)
I0314 23:57:40.298491 28743 net.cpp:156] Memory required for data: 2244145152
I0314 23:57:40.298498 28743 layer_factory.hpp:77] Creating layer conv2
I0314 23:57:40.298523 28743 net.cpp:91] Creating Layer conv2
I0314 23:57:40.298532 28743 net.cpp:425] conv2 <- pool1
I0314 23:57:40.298544 28743 net.cpp:399] conv2 -> conv2
I0314 23:57:40.315296 28743 net.cpp:141] Setting up conv2
I0314 23:57:40.315343 28743 net.cpp:148] Top shape: 512 256 27 27 (95551488)
I0314 23:57:40.315352 28743 net.cpp:156] Memory required for data: 2626351104
I0314 23:57:40.315374 28743 layer_factory.hpp:77] Creating layer relu2
I0314 23:57:40.315390 28743 net.cpp:91] Creating Layer relu2
I0314 23:57:40.315399 28743 net.cpp:425] relu2 <- conv2
I0314 23:57:40.315415 28743 net.cpp:386] relu2 -> conv2 (in-place)
I0314 23:57:40.315716 28743 net.cpp:141] Setting up relu2
I0314 23:57:40.315740 28743 net.cpp:148] Top shape: 512 256 27 27 (95551488)
I0314 23:57:40.315748 28743 net.cpp:156] Memory required for data: 3008557056
I0314 23:57:40.315757 28743 layer_factory.hpp:77] Creating layer norm2
I0314 23:57:40.315774 28743 net.cpp:91] Creating Layer norm2
I0314 23:57:40.315783 28743 net.cpp:425] norm2 <- conv2
I0314 23:57:40.315798 28743 net.cpp:399] norm2 -> norm2
I0314 23:57:40.316254 28743 net.cpp:141] Setting up norm2
I0314 23:57:40.316277 28743 net.cpp:148] Top shape: 512 256 27 27 (95551488)
I0314 23:57:40.316285 28743 net.cpp:156] Memory required for data: 3390763008
I0314 23:57:40.316294 28743 layer_factory.hpp:77] Creating layer pool2
I0314 23:57:40.316311 28743 net.cpp:91] Creating Layer pool2
I0314 23:57:40.316319 28743 net.cpp:425] pool2 <- norm2
I0314 23:57:40.316330 28743 net.cpp:399] pool2 -> pool2
I0314 23:57:40.316397 28743 net.cpp:141] Setting up pool2
I0314 23:57:40.316414 28743 net.cpp:148] Top shape: 512 256 13 13 (22151168)
I0314 23:57:40.316422 28743 net.cpp:156] Memory required for data: 3479367680
I0314 23:57:40.316429 28743 layer_factory.hpp:77] Creating layer conv3
I0314 23:57:40.316449 28743 net.cpp:91] Creating Layer conv3
I0314 23:57:40.316458 28743 net.cpp:425] conv3 <- pool2
I0314 23:57:40.316470 28743 net.cpp:399] conv3 -> conv3
I0314 23:57:40.358142 28743 net.cpp:141] Setting up conv3
I0314 23:57:40.358196 28743 net.cpp:148] Top shape: 512 384 13 13 (33226752)
I0314 23:57:40.358204 28743 net.cpp:156] Memory required for data: 3612274688
I0314 23:57:40.358229 28743 layer_factory.hpp:77] Creating layer relu3
I0314 23:57:40.358256 28743 net.cpp:91] Creating Layer relu3
I0314 23:57:40.358268 28743 net.cpp:425] relu3 <- conv3
I0314 23:57:40.358283 28743 net.cpp:386] relu3 -> conv3 (in-place)
I0314 23:57:40.358567 28743 net.cpp:141] Setting up relu3
I0314 23:57:40.358592 28743 net.cpp:148] Top shape: 512 384 13 13 (33226752)
I0314 23:57:40.358599 28743 net.cpp:156] Memory required for data: 3745181696
I0314 23:57:40.358608 28743 layer_factory.hpp:77] Creating layer conv4
I0314 23:57:40.358635 28743 net.cpp:91] Creating Layer conv4
I0314 23:57:40.358652 28743 net.cpp:425] conv4 <- conv3
I0314 23:57:40.358676 28743 net.cpp:399] conv4 -> conv4
I0314 23:57:40.393410 28743 net.cpp:141] Setting up conv4
I0314 23:57:40.393460 28743 net.cpp:148] Top shape: 512 384 13 13 (33226752)
I0314 23:57:40.393473 28743 net.cpp:156] Memory required for data: 3878088704
I0314 23:57:40.393497 28743 layer_factory.hpp:77] Creating layer relu4
I0314 23:57:40.393532 28743 net.cpp:91] Creating Layer relu4
I0314 23:57:40.393571 28743 net.cpp:425] relu4 <- conv4
I0314 23:57:40.393587 28743 net.cpp:386] relu4 -> conv4 (in-place)
I0314 23:57:40.393903 28743 net.cpp:141] Setting up relu4
I0314 23:57:40.393925 28743 net.cpp:148] Top shape: 512 384 13 13 (33226752)
I0314 23:57:40.393934 28743 net.cpp:156] Memory required for data: 4010995712
I0314 23:57:40.393941 28743 layer_factory.hpp:77] Creating layer conv5
I0314 23:57:40.393966 28743 net.cpp:91] Creating Layer conv5
I0314 23:57:40.393975 28743 net.cpp:425] conv5 <- conv4
I0314 23:57:40.393990 28743 net.cpp:399] conv5 -> conv5
I0314 23:57:40.418758 28743 net.cpp:141] Setting up conv5
I0314 23:57:40.418824 28743 net.cpp:148] Top shape: 512 256 13 13 (22151168)
I0314 23:57:40.418849 28743 net.cpp:156] Memory required for data: 4099600384
I0314 23:57:40.418880 28743 layer_factory.hpp:77] Creating layer relu5
I0314 23:57:40.418908 28743 net.cpp:91] Creating Layer relu5
I0314 23:57:40.418931 28743 net.cpp:425] relu5 <- conv5
I0314 23:57:40.418959 28743 net.cpp:386] relu5 -> conv5 (in-place)
I0314 23:57:40.419255 28743 net.cpp:141] Setting up relu5
I0314 23:57:40.419279 28743 net.cpp:148] Top shape: 512 256 13 13 (22151168)
I0314 23:57:40.419287 28743 net.cpp:156] Memory required for data: 4188205056
I0314 23:57:40.419296 28743 layer_factory.hpp:77] Creating layer pool5
I0314 23:57:40.419318 28743 net.cpp:91] Creating Layer pool5
I0314 23:57:40.419329 28743 net.cpp:425] pool5 <- conv5
I0314 23:57:40.419344 28743 net.cpp:399] pool5 -> pool5
I0314 23:57:40.419420 28743 net.cpp:141] Setting up pool5
I0314 23:57:40.419438 28743 net.cpp:148] Top shape: 512 256 6 6 (4718592)
I0314 23:57:40.419445 28743 net.cpp:156] Memory required for data: 4207079424
I0314 23:57:40.419453 28743 layer_factory.hpp:77] Creating layer fc6
I0314 23:57:40.419472 28743 net.cpp:91] Creating Layer fc6
I0314 23:57:40.419481 28743 net.cpp:425] fc6 <- pool5
I0314 23:57:40.419492 28743 net.cpp:399] fc6 -> fc6
I0314 23:57:42.115881 28743 net.cpp:141] Setting up fc6
I0314 23:57:42.115938 28743 net.cpp:148] Top shape: 512 4096 (2097152)
I0314 23:57:42.115947 28743 net.cpp:156] Memory required for data: 4215468032
I0314 23:57:42.115969 28743 layer_factory.hpp:77] Creating layer relu6
I0314 23:57:42.115989 28743 net.cpp:91] Creating Layer relu6
I0314 23:57:42.116000 28743 net.cpp:425] relu6 <- fc6
I0314 23:57:42.116014 28743 net.cpp:386] relu6 -> fc6 (in-place)
I0314 23:57:42.116691 28743 net.cpp:141] Setting up relu6
I0314 23:57:42.116713 28743 net.cpp:148] Top shape: 512 4096 (2097152)
I0314 23:57:42.116719 28743 net.cpp:156] Memory required for data: 4223856640
I0314 23:57:42.116726 28743 layer_factory.hpp:77] Creating layer drop6
I0314 23:57:42.116739 28743 net.cpp:91] Creating Layer drop6
I0314 23:57:42.116746 28743 net.cpp:425] drop6 <- fc6
I0314 23:57:42.116756 28743 net.cpp:386] drop6 -> fc6 (in-place)
I0314 23:57:42.116811 28743 net.cpp:141] Setting up drop6
I0314 23:57:42.116828 28743 net.cpp:148] Top shape: 512 4096 (2097152)
I0314 23:57:42.116834 28743 net.cpp:156] Memory required for data: 4232245248
I0314 23:57:42.116842 28743 layer_factory.hpp:77] Creating layer fc7
I0314 23:57:42.116858 28743 net.cpp:91] Creating Layer fc7
I0314 23:57:42.116868 28743 net.cpp:425] fc7 <- fc6
I0314 23:57:42.116878 28743 net.cpp:399] fc7 -> fc7
I0314 23:57:42.801167 28743 net.cpp:141] Setting up fc7
I0314 23:57:42.801223 28743 net.cpp:148] Top shape: 512 4096 (2097152)
I0314 23:57:42.801231 28743 net.cpp:156] Memory required for data: 4240633856
I0314 23:57:42.801254 28743 layer_factory.hpp:77] Creating layer relu7
I0314 23:57:42.801275 28743 net.cpp:91] Creating Layer relu7
I0314 23:57:42.801287 28743 net.cpp:425] relu7 <- fc7
I0314 23:57:42.801307 28743 net.cpp:386] relu7 -> fc7 (in-place)
I0314 23:57:42.801749 28743 net.cpp:141] Setting up relu7
I0314 23:57:42.801779 28743 net.cpp:148] Top shape: 512 4096 (2097152)
I0314 23:57:42.801795 28743 net.cpp:156] Memory required for data: 4249022464
I0314 23:57:42.801811 28743 layer_factory.hpp:77] Creating layer drop7
I0314 23:57:42.801826 28743 net.cpp:91] Creating Layer drop7
I0314 23:57:42.801859 28743 net.cpp:425] drop7 <- fc7
I0314 23:57:42.801872 28743 net.cpp:386] drop7 -> fc7 (in-place)
I0314 23:57:42.801925 28743 net.cpp:141] Setting up drop7
I0314 23:57:42.801939 28743 net.cpp:148] Top shape: 512 4096 (2097152)
I0314 23:57:42.801946 28743 net.cpp:156] Memory required for data: 4257411072
I0314 23:57:42.801954 28743 layer_factory.hpp:77] Creating layer fc8_chh
I0314 23:57:42.801973 28743 net.cpp:91] Creating Layer fc8_chh
I0314 23:57:42.801985 28743 net.cpp:425] fc8_chh <- fc7
I0314 23:57:42.802000 28743 net.cpp:399] fc8_chh -> fc8_chh
I0314 23:57:42.812284 28743 net.cpp:141] Setting up fc8_chh
I0314 23:57:42.812307 28743 net.cpp:148] Top shape: 512 60 (30720)
I0314 23:57:42.812319 28743 net.cpp:156] Memory required for data: 4257533952
I0314 23:57:42.812331 28743 layer_factory.hpp:77] Creating layer fc8_chh_fc8_chh_0_split
I0314 23:57:42.812346 28743 net.cpp:91] Creating Layer fc8_chh_fc8_chh_0_split
I0314 23:57:42.812360 28743 net.cpp:425] fc8_chh_fc8_chh_0_split <- fc8_chh
I0314 23:57:42.812377 28743 net.cpp:399] fc8_chh_fc8_chh_0_split -> fc8_chh_fc8_chh_0_split_0
I0314 23:57:42.812409 28743 net.cpp:399] fc8_chh_fc8_chh_0_split -> fc8_chh_fc8_chh_0_split_1
I0314 23:57:42.812481 28743 net.cpp:141] Setting up fc8_chh_fc8_chh_0_split
I0314 23:57:42.812499 28743 net.cpp:148] Top shape: 512 60 (30720)
I0314 23:57:42.812507 28743 net.cpp:148] Top shape: 512 60 (30720)
I0314 23:57:42.812513 28743 net.cpp:156] Memory required for data: 4257779712
I0314 23:57:42.812520 28743 layer_factory.hpp:77] Creating layer accuracy
I0314 23:57:42.812536 28743 net.cpp:91] Creating Layer accuracy
I0314 23:57:42.812546 28743 net.cpp:425] accuracy <- fc8_chh_fc8_chh_0_split_0
I0314 23:57:42.812556 28743 net.cpp:425] accuracy <- label_data_1_split_0
I0314 23:57:42.812564 28743 net.cpp:399] accuracy -> accuracy
…
I0314 23:57:42.814903 28743 solver.cpp:181] Creating test net (#0) specified by net file: ./train_val.prototxt
I0314 23:57:42.814975 28743 net.cpp:313] The NetState phase (1) differed from the phase (0) specified by a rule in layer data
I0314 23:57:42.815261 28743 net.cpp:49] Initializing net from parameters: 
name: "AlexNet"
state {
  phase: TEST
}
layer {
  name: "data"
  type: "Data"
  top: "data"
  top: "label"
  include {
    phase: TEST
  }
  transform_param {
    mirror: false
    crop_size: 227
    mean_file: "mean.binaryproto"
  }
  data_param {
    source: "skeleton_test_lmdb"
    batch_size: 500
    backend: LMDB
  }
}
layer {
  name: "conv1"
  type: "Convolution"
  bottom: "data"
  top: "conv1"
  param {
    lr_mult: 1
    decay_mult: 1
  }
  param {
    lr_mult: 2
    decay_mult: 0
  }
  convolution_param {
    num_output: 96
    kernel_size: 11
    stride: 4
    weight_filler {
      type: "gaussian"
      std: 0.01
    }
    bias_filler {
      type: "constant"
      value: 0
    }
  }
}
layer {
  name: "relu1"
  type: "ReLU"
  bottom: "conv1"
  top: "conv1"
}
layer {
  name: "norm1"
  type: "LRN"
  bottom: "conv1"
  top: "norm1"
  lrn_param {
    local_size: 5
    alpha: 0.0001
    beta: 0.75
  }
}
layer {
  name: "pool1"
  type: "Pooling"
  bottom: "norm1"
  top: "pool1"
  pooling_param {
    pool: MAX
    kernel_size: 3
    stride: 2
  }
}
layer {
  name: "conv2"
  type: "Convolution"
  bottom: "pool1"
  top: "conv2"
  param {
    lr_mult: 1
    decay_mult: 1
  }
  param {
    lr_mult: 2
    decay_mult: 0
  }
  convolution_param {
    num_output: 256
    pad: 2
    kernel_size: 5
    group: 2
    weight_filler {
      type: "gaussian"
      std: 0.01
    }
    bias_filler {
      type: "constant"
      value: 0.1
    }
  }
}
layer {
  name: "relu2"
  type: "ReLU"
  bottom: "conv2"
  top: "conv2"
}
layer {
  name: "norm2"
  type: "LRN"
  bottom: "conv2"
  top: "norm2"
  lrn_param {
    local_size: 5
    alpha: 0.0001
    beta: 0.75
  }
}
layer {
  name: "pool2"
  type: "Pooling"
  bottom: "norm2"
  top: "pool2"
  pooling_param {
    pool: MAX
    kernel_size: 3
    stride: 2
  }
}
layer {
  name: "conv3"
  type: "Convolution"
  bottom: "pool2"
  top: "conv3"
  param {
    lr_mult: 1
    decay_mult: 1
  }
  param {
    lr_mult: 2
    decay_mult: 0
  }
  convolution_param {
    num_output: 384
    pad: 1
    kernel_size: 3
    weight_filler {
      type: "gaussian"
      std: 0.01
    }
    bias_filler {
      type: "constant"
      value: 0
    }
  }
}
layer {
  name: "relu3"
  type: "ReLU"
  bottom: "conv3"
  top: "conv3"
}
layer {
  name: "conv4"
  type: "Convolution"
  bottom: "conv3"
  top: "conv4"
  param {
    lr_mult: 1
    decay_mult: 1
  }
  param {
    lr_mult: 2
    decay_mult: 0
  }
  convolution_param {
    num_output: 384
    pad: 1
    kernel_size: 3
    group: 2
    weight_filler {
      type: "gaussian"
      std: 0.01
    }
    bias_filler {
      type: "constant"
      value: 0.1
    }
  }
}
layer {
  name: "relu4"
  type: "ReLU"
  bottom: "conv4"
  top: "conv4"
}
layer {
  name: "conv5"
  type: "Convolution"
  bottom: "conv4"
  top: "conv5"
  param {
    lr_mult: 1
    decay_mult: 1
  }
  param {
    lr_mult: 2
    decay_mult: 0
  }
  convolution_param {
    num_output: 256
    pad: 1
    kernel_size: 3
    group: 2
    weight_filler {
      type: "gaussian"
      std: 0.01
    }
    bias_filler {
      type: "constant"
      value: 0.1
    }
  }
}
layer {
  name: "relu5"
  type: "ReLU"
  bottom: "conv5"
  top: "conv5"
}
layer {
  name: "pool5"
  type: "Pooling"
  bottom: "conv5"
  top: "pool5"
  pooling_param {
    pool: MAX
    kernel_size: 3
    stride: 2
  }
}
layer {
  name: "fc6"
  type: "InnerProduct"
  bottom: "pool5"
  top: "fc6"
  param {
    lr_mult: 1
    decay_mult: 1
  }
  param {
    lr_mult: 2
    decay_mult: 0
  }
  inner_product_param {
    num_output: 4096
    weight_filler {
      type: "gaussian"
      std: 0.005
    }
    bias_filler {
      type: "constant"
      value: 0.1
    }
  }
}
layer {
  name: "relu6"
  type: "ReLU"
  bottom: "fc6"
  top: "fc6"
}
layer {
  name: "drop6"
  type: "Dropout"
  bottom: "fc6"
  top: "fc6"
  dropout_param {
    dropout_ratio: 0.5
  }
}
layer {
  name: "fc7"
  type: "InnerProduct"
  bottom: "fc6"
  top: "fc7"
  param {
    lr_mult: 1
    decay_mult: 1
  }
  param {
    lr_mult: 2
    decay_mult: 0
  }
  inner_product_param {
    num_output: 4096
    weight_filler {
      type: "gaussian"
      std: 0.005
    }
    bias_filler {
      type: "constant"
      value: 0.1
    }
  }
}
layer {
  name: "relu7"
  type: "ReLU"
  bottom: "fc7"
  top: "fc7"
}
layer {
  name: "drop7"
  type: "Dropout"
  bottom: "fc7"
  top: "fc7"
  dropout_param {
    dropout_ratio: 0.5
  }
}
layer {
  name: "fc8_chh"
  type: "InnerProduct"
  bottom: "fc7"
  top: "fc8_chh"
  param {
    lr_mult: 1
    decay_mult: 1
  }
  param {
    lr_mult: 2
    decay_mult: 0
  }
  inner_product_param {
    num_output: 60
    weight_filler {
      type: "gaussian"
      std: 0.01
    }
    bias_filler {
      type: "constant"
      value: 0
    }
  }
}
layer {
  name: "accuracy"
  type: "Accuracy"
  bottom: "fc8_chh"
  bottom: "label"
  top: "accuracy"
}
layer {
  name: "loss"
  type: "SoftmaxWithLoss"
  bottom: "fc8_chh"
  bottom: "label"
  top: "loss"
}
I0314 23:57:42.815428 28743 layer_factory.hpp:77] Creating layer data
I0314 23:57:42.815928 28743 net.cpp:91] Creating Layer data
I0314 23:57:42.815950 28743 net.cpp:399] data -> data
I0314 23:57:42.815966 28743 net.cpp:399] data -> label
I0314 23:57:42.815980 28743 data_transformer.cpp:25] Loading mean file from: mean.binaryproto
I0314 23:57:42.832459 28750 db_lmdb.cpp:38] Opened lmdb skeleton_test_lmdb
I0314 23:57:42.833093 28743 data_layer.cpp:41] output data size: 500,3,227,227
I0314 23:57:43.526777 28743 net.cpp:141] Setting up data
I0314 23:57:43.526904 28743 net.cpp:148] Top shape: 500 3 227 227 (77293500)
I0314 23:57:43.526937 28743 net.cpp:148] Top shape: 500 (500)
I0314 23:57:43.526954 28743 net.cpp:156] Memory required for data: 309176000
I0314 23:57:43.527009 28743 layer_factory.hpp:77] Creating layer label_data_1_split
I0314 23:57:43.527065 28743 net.cpp:91] Creating Layer label_data_1_split
I0314 23:57:43.527082 28743 net.cpp:425] label_data_1_split <- label
I0314 23:57:43.527098 28743 net.cpp:399] label_data_1_split -> label_data_1_split_0
I0314 23:57:43.527119 28743 net.cpp:399] label_data_1_split -> label_data_1_split_1
I0314 23:57:43.527278 28743 net.cpp:141] Setting up label_data_1_split
I0314 23:57:43.527299 28743 net.cpp:148] Top shape: 500 (500)
I0314 23:57:43.527312 28743 net.cpp:148] Top shape: 500 (500)
I0314 23:57:43.527318 28743 net.cpp:156] Memory required for data: 309180000
I0314 23:57:43.527328 28743 layer_factory.hpp:77] Creating layer conv1
I0314 23:57:43.527356 28743 net.cpp:91] Creating Layer conv1
I0314 23:57:43.527367 28743 net.cpp:425] conv1 <- data
I0314 23:57:43.527382 28743 net.cpp:399] conv1 -> conv1
I0314 23:57:43.581598 28743 net.cpp:141] Setting up conv1
I0314 23:57:43.581652 28743 net.cpp:148] Top shape: 500 96 55 55 (145200000)
I0314 23:57:43.581662 28743 net.cpp:156] Memory required for data: 889980000
I0314 23:57:43.581686 28743 layer_factory.hpp:77] Creating layer relu1
I0314 23:57:43.581735 28743 net.cpp:91] Creating Layer relu1
I0314 23:57:43.581746 28743 net.cpp:425] relu1 <- conv1
I0314 23:57:43.581759 28743 net.cpp:386] relu1 -> conv1 (in-place)
I0314 23:57:43.582041 28743 net.cpp:141] Setting up relu1
I0314 23:57:43.582062 28743 net.cpp:148] Top shape: 500 96 55 55 (145200000)
I0314 23:57:43.582072 28743 net.cpp:156] Memory required for data: 1470780000
I0314 23:57:43.582079 28743 layer_factory.hpp:77] Creating layer norm1
I0314 23:57:43.582098 28743 net.cpp:91] Creating Layer norm1
I0314 23:57:43.582106 28743 net.cpp:425] norm1 <- conv1
I0314 23:57:43.582118 28743 net.cpp:399] norm1 -> norm1
I0314 23:57:43.582594 28743 net.cpp:141] Setting up norm1
I0314 23:57:43.582617 28743 net.cpp:148] Top shape: 500 96 55 55 (145200000)
I0314 23:57:43.582624 28743 net.cpp:156] Memory required for data: 2051580000
I0314 23:57:43.582633 28743 layer_factory.hpp:77] Creating layer pool1
I0314 23:57:43.582646 28743 net.cpp:91] Creating Layer pool1
I0314 23:57:43.582654 28743 net.cpp:425] pool1 <- norm1
I0314 23:57:43.582666 28743 net.cpp:399] pool1 -> pool1
I0314 23:57:43.582736 28743 net.cpp:141] Setting up pool1
I0314 23:57:43.582754 28743 net.cpp:148] Top shape: 500 96 27 27 (34992000)
I0314 23:57:43.582762 28743 net.cpp:156] Memory required for data: 2191548000
I0314 23:57:43.582772 28743 layer_factory.hpp:77] Creating layer conv2
I0314 23:57:43.582792 28743 net.cpp:91] Creating Layer conv2
I0314 23:57:43.582801 28743 net.cpp:425] conv2 <- pool1
I0314 23:57:43.582813 28743 net.cpp:399] conv2 -> conv2
I0314 23:57:43.601984 28743 net.cpp:141] Setting up conv2
I0314 23:57:43.602035 28743 net.cpp:148] Top shape: 500 256 27 27 (93312000)
I0314 23:57:43.602044 28743 net.cpp:156] Memory required for data: 2564796000
I0314 23:57:43.602066 28743 layer_factory.hpp:77] Creating layer relu2
I0314 23:57:43.602082 28743 net.cpp:91] Creating Layer relu2
I0314 23:57:43.602092 28743 net.cpp:425] relu2 <- conv2
I0314 23:57:43.602105 28743 net.cpp:386] relu2 -> conv2 (in-place)
I0314 23:57:43.602404 28743 net.cpp:141] Setting up relu2
I0314 23:57:43.602427 28743 net.cpp:148] Top shape: 500 256 27 27 (93312000)
I0314 23:57:43.602434 28743 net.cpp:156] Memory required for data: 2938044000
I0314 23:57:43.602442 28743 layer_factory.hpp:77] Creating layer norm2
I0314 23:57:43.602460 28743 net.cpp:91] Creating Layer norm2
I0314 23:57:43.602468 28743 net.cpp:425] norm2 <- conv2
I0314 23:57:43.602479 28743 net.cpp:399] norm2 -> norm2
I0314 23:57:43.602958 28743 net.cpp:141] Setting up norm2
I0314 23:57:43.602982 28743 net.cpp:148] Top shape: 500 256 27 27 (93312000)
I0314 23:57:43.602989 28743 net.cpp:156] Memory required for data: 3311292000
I0314 23:57:43.602998 28743 layer_factory.hpp:77] Creating layer pool2
I0314 23:57:43.603011 28743 net.cpp:91] Creating Layer pool2
I0314 23:57:43.603019 28743 net.cpp:425] pool2 <- norm2
I0314 23:57:43.603030 28743 net.cpp:399] pool2 -> pool2
I0314 23:57:43.603103 28743 net.cpp:141] Setting up pool2
I0314 23:57:43.603121 28743 net.cpp:148] Top shape: 500 256 13 13 (21632000)
I0314 23:57:43.603128 28743 net.cpp:156] Memory required for data: 3397820000
I0314 23:57:43.603137 28743 layer_factory.hpp:77] Creating layer conv3
I0314 23:57:43.603157 28743 net.cpp:91] Creating Layer conv3
I0314 23:57:43.603165 28743 net.cpp:425] conv3 <- pool2
I0314 23:57:43.603178 28743 net.cpp:399] conv3 -> conv3
I0314 23:57:43.643792 28743 net.cpp:141] Setting up conv3
I0314 23:57:43.643838 28743 net.cpp:148] Top shape: 500 384 13 13 (32448000)
I0314 23:57:43.643847 28743 net.cpp:156] Memory required for data: 3527612000
I0314 23:57:43.643867 28743 layer_factory.hpp:77] Creating layer relu3
I0314 23:57:43.643883 28743 net.cpp:91] Creating Layer relu3
I0314 23:57:43.643894 28743 net.cpp:425] relu3 <- conv3
I0314 23:57:43.643910 28743 net.cpp:386] relu3 -> conv3 (in-place)
I0314 23:57:43.644351 28743 net.cpp:141] Setting up relu3
I0314 23:57:43.644373 28743 net.cpp:148] Top shape: 500 384 13 13 (32448000)
I0314 23:57:43.644381 28743 net.cpp:156] Memory required for data: 3657404000
I0314 23:57:43.644389 28743 layer_factory.hpp:77] Creating layer conv4
I0314 23:57:43.644428 28743 net.cpp:91] Creating Layer conv4
I0314 23:57:43.644438 28743 net.cpp:425] conv4 <- conv3
I0314 23:57:43.644451 28743 net.cpp:399] conv4 -> conv4
I0314 23:57:43.677083 28743 net.cpp:141] Setting up conv4
I0314 23:57:43.677134 28743 net.cpp:148] Top shape: 500 384 13 13 (32448000)
I0314 23:57:43.677144 28743 net.cpp:156] Memory required for data: 3787196000
I0314 23:57:43.677158 28743 layer_factory.hpp:77] Creating layer relu4
I0314 23:57:43.677178 28743 net.cpp:91] Creating Layer relu4
I0314 23:57:43.677188 28743 net.cpp:425] relu4 <- conv4
I0314 23:57:43.677201 28743 net.cpp:386] relu4 -> conv4 (in-place)
I0314 23:57:43.677513 28743 net.cpp:141] Setting up relu4
I0314 23:57:43.677536 28743 net.cpp:148] Top shape: 500 384 13 13 (32448000)
I0314 23:57:43.677544 28743 net.cpp:156] Memory required for data: 3916988000
I0314 23:57:43.677552 28743 layer_factory.hpp:77] Creating layer conv5
I0314 23:57:43.677572 28743 net.cpp:91] Creating Layer conv5
I0314 23:57:43.677579 28743 net.cpp:425] conv5 <- conv4
I0314 23:57:43.677593 28743 net.cpp:399] conv5 -> conv5
I0314 23:57:43.700505 28743 net.cpp:141] Setting up conv5
I0314 23:57:43.700564 28743 net.cpp:148] Top shape: 500 256 13 13 (21632000)
I0314 23:57:43.700574 28743 net.cpp:156] Memory required for data: 4003516000
I0314 23:57:43.700597 28743 layer_factory.hpp:77] Creating layer relu5
I0314 23:57:43.700619 28743 net.cpp:91] Creating Layer relu5
I0314 23:57:43.700635 28743 net.cpp:425] relu5 <- conv5
I0314 23:57:43.700661 28743 net.cpp:386] relu5 -> conv5 (in-place)
I0314 23:57:43.700966 28743 net.cpp:141] Setting up relu5
I0314 23:57:43.700989 28743 net.cpp:148] Top shape: 500 256 13 13 (21632000)
I0314 23:57:43.700997 28743 net.cpp:156] Memory required for data: 4090044000
I0314 23:57:43.701004 28743 layer_factory.hpp:77] Creating layer pool5
I0314 23:57:43.701023 28743 net.cpp:91] Creating Layer pool5
I0314 23:57:43.701031 28743 net.cpp:425] pool5 <- conv5
I0314 23:57:43.701043 28743 net.cpp:399] pool5 -> pool5
I0314 23:57:43.701128 28743 net.cpp:141] Setting up pool5
I0314 23:57:43.701146 28743 net.cpp:148] Top shape: 500 256 6 6 (4608000)
I0314 23:57:43.701153 28743 net.cpp:156] Memory required for data: 4108476000
I0314 23:57:43.701160 28743 layer_factory.hpp:77] Creating layer fc6
I0314 23:57:43.701179 28743 net.cpp:91] Creating Layer fc6
I0314 23:57:43.701186 28743 net.cpp:425] fc6 <- pool5
I0314 23:57:43.701198 28743 net.cpp:399] fc6 -> fc6
I0314 23:57:45.365650 28743 net.cpp:141] Setting up fc6
I0314 23:57:45.365705 28743 net.cpp:148] Top shape: 500 4096 (2048000)
I0314 23:57:45.365713 28743 net.cpp:156] Memory required for data: 4116668000
I0314 23:57:45.365730 28743 layer_factory.hpp:77] Creating layer relu6
I0314 23:57:45.365746 28743 net.cpp:91] Creating Layer relu6
I0314 23:57:45.365756 28743 net.cpp:425] relu6 <- fc6
I0314 23:57:45.365770 28743 net.cpp:386] relu6 -> fc6 (in-place)
I0314 23:57:45.366390 28743 net.cpp:141] Setting up relu6
I0314 23:57:45.366413 28743 net.cpp:148] Top shape: 500 4096 (2048000)
I0314 23:57:45.366421 28743 net.cpp:156] Memory required for data: 4124860000
I0314 23:57:45.366430 28743 layer_factory.hpp:77] Creating layer drop6
I0314 23:57:45.366441 28743 net.cpp:91] Creating Layer drop6
I0314 23:57:45.366449 28743 net.cpp:425] drop6 <- fc6
I0314 23:57:45.366461 28743 net.cpp:386] drop6 -> fc6 (in-place)
I0314 23:57:45.366514 28743 net.cpp:141] Setting up drop6
I0314 23:57:45.366535 28743 net.cpp:148] Top shape: 500 4096 (2048000)
I0314 23:57:45.366544 28743 net.cpp:156] Memory required for data: 4133052000
I0314 23:57:45.366550 28743 layer_factory.hpp:77] Creating layer fc7
I0314 23:57:45.366564 28743 net.cpp:91] Creating Layer fc7
I0314 23:57:45.366575 28743 net.cpp:425] fc7 <- fc6
I0314 23:57:45.366590 28743 net.cpp:399] fc7 -> fc7
I0314 23:57:46.058907 28743 net.cpp:141] Setting up fc7
I0314 23:57:46.058959 28743 net.cpp:148] Top shape: 500 4096 (2048000)
I0314 23:57:46.058966 28743 net.cpp:156] Memory required for data: 4141244000
I0314 23:57:46.058989 28743 layer_factory.hpp:77] Creating layer relu7
I0314 23:57:46.059039 28743 net.cpp:91] Creating Layer relu7
I0314 23:57:46.059059 28743 net.cpp:425] relu7 <- fc7
I0314 23:57:46.059092 28743 net.cpp:386] relu7 -> fc7 (in-place)
I0314 23:57:46.059559 28743 net.cpp:141] Setting up relu7
I0314 23:57:46.059579 28743 net.cpp:148] Top shape: 500 4096 (2048000)
I0314 23:57:46.059587 28743 net.cpp:156] Memory required for data: 4149436000
I0314 23:57:46.059594 28743 layer_factory.hpp:77] Creating layer drop7
I0314 23:57:46.059608 28743 net.cpp:91] Creating Layer drop7
I0314 23:57:46.059623 28743 net.cpp:425] drop7 <- fc7
I0314 23:57:46.059633 28743 net.cpp:386] drop7 -> fc7 (in-place)
I0314 23:57:46.059689 28743 net.cpp:141] Setting up drop7
I0314 23:57:46.059706 28743 net.cpp:148] Top shape: 500 4096 (2048000)
I0314 23:57:46.059715 28743 net.cpp:156] Memory required for data: 4157628000
I0314 23:57:46.059720 28743 layer_factory.hpp:77] Creating layer fc8_chh
I0314 23:57:46.059736 28743 net.cpp:91] Creating Layer fc8_chh
I0314 23:57:46.059746 28743 net.cpp:425] fc8_chh <- fc7
I0314 23:57:46.059758 28743 net.cpp:399] fc8_chh -> fc8_chh
I0314 23:57:46.069955 28743 net.cpp:141] Setting up fc8_chh
I0314 23:57:46.069977 28743 net.cpp:148] Top shape: 500 60 (30000)
I0314 23:57:46.069988 28743 net.cpp:156] Memory required for data: 4157748000
I0314 23:57:46.070000 28743 layer_factory.hpp:77] Creating layer fc8_chh_fc8_chh_0_split
I0314 23:57:46.070013 28743 net.cpp:91] Creating Layer fc8_chh_fc8_chh_0_split
I0314 23:57:46.070021 28743 net.cpp:425] fc8_chh_fc8_chh_0_split <- fc8_chh
I0314 23:57:46.070031 28743 net.cpp:399] fc8_chh_fc8_chh_0_split -> fc8_chh_fc8_chh_0_split_0
I0314 23:57:46.070044 28743 net.cpp:399] fc8_chh_fc8_chh_0_split -> fc8_chh_fc8_chh_0_split_1
I0314 23:57:46.070130 28743 net.cpp:141] Setting up fc8_chh_fc8_chh_0_split
I0314 23:57:46.070150 28743 net.cpp:148] Top shape: 500 60 (30000)
I0314 23:57:46.070159 28743 net.cpp:148] Top shape: 500 60 (30000)
I0314 23:57:46.070165 28743 net.cpp:156] Memory required for data: 4157988000
I0314 23:57:46.070173 28743 layer_factory.hpp:77] Creating layer accuracy
I0314 23:57:46.070186 28743 net.cpp:91] Creating Layer accuracy
I0314 23:57:46.070194 28743 net.cpp:425] accuracy <- fc8_chh_fc8_chh_0_split_0
I0314 23:57:46.070204 28743 net.cpp:425] accuracy <- label_data_1_split_0
I0314 23:57:46.070214 28743 net.cpp:399] accuracy -> accuracy
…
